data/2019-03-03-checkpoint_ddqn.pth (torch_old, 28417 bytes, 6 tensors)

fc1.weight f4 [64, 37]
00000000: 4349 aa3d d5ef 0ebe d46c 4cbe 2b2a babd
00000010: 5723 113d ce80 12be 57a2 43bd c758 273e
00000020: 37d7 2e3e 8017 d8bc cd25 983d 7d2a 6cbe
00000030: 2031 16be b3d8 c2be 51d1 c7be e6bc 0c3d
00000040: 08b7 223c e31b e93c e60f 52be b69e c2bd
00000050: eaab 433e e12c 09be a176 12be 512e 973d
00000060: 4444 40bb 9af7 75be 47e5 b53d 4b71 043e
00000070: 5f9b 9ebe a14a 70bd 6eb9 213e 9777 35be
00000080: e776 49be 5242 a1be ea54 c9be 4082 99bd
00000090: ed9e c7bc 4b14 123e b609 c93d 7ffd a43d
000000a0: ac4f a23d 579e 09bd 4e03 5a3e 0e35 afbe
000000b0: 9913 27be 1e7a 00bf 6494 75bf 413a a23d
000000c0: 3f3e c73c 9784 91bd 010d 173e 714d 273e
000000d0: 6356 263e c444 87bc 247f 55bd 9807 ab3d
000000e0: 2370 413d 5998 e8bd 2279 76bd 5bdc 61bd
000000f0: 7c82 c23c f215 f63d 5d0f 00bd a897 023e
00000100: 68f7 8dbd 3247 733d f28f f23d de4c 5c3d
00000110: 13cd 2b3e 718a 033e 2519 983d 4cfe 0c3d
00000120: f9ff 6c3d bc0d a6bb 50fc 9d3d 349d 90bd
00000130: e359 4c3e 8264 193d 743a 023e 0459 5dbe
00000140: 4330 5cbe fce5 6c3e 4d35 ab3d 50e7 85bd
00000150: bb82 91bd d0bb cc3d fc2e 80bd 045e de3d
00000160: ac4e b83e a34c 82be 0613 81bc 5363 233e
00000170: a143 053e d297 25bd 5f7c 8bbe 29bd cbbd
00000180: a56f 4d3e ff6f b03c bbc1 94bc 5b1d 68be
00000190: 3080 fe3d 04ff 5e3e 4e47 debd eaa6 5dbd
000001a0: e872 71be 9891 d0bc 64e0 a0bd 8523 ec39
000001b0: 906d be3c bbbe 85bc 0026 febc df1a 4dbe
000001c0: 039f 553d 77ea af3e 6fb0 42bd a806 00bf
000001d0: ac76 15be ced9 9c3d 2793 ff3d 5337 a9bd
000001e0: 169f 1f3d b235 193e d5ca f53c 8103 1cbe
000001f0: 0052 8ebe 4a34 f1bd a075 56bc 0e76 81be
00000200: 47ed 893c 76b2 1ebe 529a 31bf c5f7 103e
00000210: 9d32 dbbc e085 5fbe a945 aa3d d11e 5bbe
00000220: 53b8 45bd 0c1f a5bd 4ebc fc3d ce2b 1c3e
00000230: da53 82be 7dd1 0f3d bfeb 7c3e 4d88 263d
00000240: 31b7 17be 4a41 0abe 9d95 d53d f716 3cbb
00000250: b88b bebc 7f94 5dbe d479 29be 2c4c 81bd
00000260: 795c 8b3d f2ec 113e 3517 cb3b f687 7dbd
00000270: c904 03be dcbf f83d b868 e43c 7a5b 75bd
00000280: 7d35 d9bd 65c6 72bd 8dbc 22be 573c 54bd
00000290: d702 89bd 307d 46bd 911d 1dbc 774f 843e
000002a0: 1221 023d bd47 88be 30bb 6ebd b8b3 113e
000002b0: 617e 063f e8fb ae3d 8ee3 d7bd 0c11 cebc
000002c0: d28c 773d cdd0 5c3d 201f 823d 83bc 11be
000002d0: 51c1 053d a385 463e 9a11 f53e a155 133d
000002e0: 219d af3c b2c8 403c 3179 01bd 39b5 833d
000002f0: 5b2b 433d b886 063e bb3f c93e 3843 e2be
00000300: 87fd 95be 44c8 1abf cd26 e0bf a0d0 65bd
00000310: 25aa 8c3c 4a04 8dbc 158e 03bd 9a65 0dbc
00000320: 5ad0 89ba 54a3 903d 098a 5cbc df68 223d
00000330: 0adc febc 83ce a93d 5f29 ba3d 580f 123e
00000340: e76b 343e 9441 313e f3a6 94bd 4cc5 d03d
00000350: 564d 923d bb4b be3d 551e 063e 65a3 f33c
00000360: 6621 1cbd 221f c33d 9ef3 8c3d 14e3 2f3d
00000370: f9a2 fa3a 0224 af3a f985 a0bc 6313 bfbd
00000380: 4f28 9b3d cf3b c6bd 1a5c b2ba 1736 64be
00000390: 6d0e 0ebe 596a 073e 7fe6 3d3d 4196 b43e
000003a0: bcb9 24bc d83d 1b3e 9d76 cebb 4099 b0b9
000003b0: d047 e83d 62f8 d7bd 9e42 7abe 1aaf dbba
000003c0: 7efc 933d 7d5f 093f 5016 e3bd 1eb6 14bb
000003d0: 048d a83c 0db4 1cbe 32f3 023e 5f7e 36be
000003e0: f2ad 9bbd e859 0abe c381 8abb d987 a83e
000003f0: 0251 62bd e6e0 843c d3a8 f2bc 3a08 203e
0.08314755 -0.13958676 -0.1996339 -0.09090074 0.035434093 -0.14306948 -0.04776224 0.1634246
0.17074285 -0.026378393 0.07429085 -0.23063083 -0.14667177 -0.38055953 -0.39026883 0.034359835
0.009931333 0.02845568 -0.20513877 -0.09502928 0.19108549 -0.13396026 -0.14303066 0.07381881
-0.0029337564 -0.24020234 0.08881622 0.12933843 -0.30977914 -0.05866492 0.15793392 -0.17721401
-0.19674264 -0.3149591 -0.39322597 -0.07495546 -0.024367774 0.14265554 0.09816305 0.08056163
0.079253525 -0.03359827 0.21290323 -0.34220165 -0.1631607 -0.50186336 -0.9592955 0.07921267
0.024321673 -0.07105368 0.14751054 0.16338135 0.16243891 -0.016512282 -0.052123204 0.08351058
0.047226083 -0.11357183 -0.060174115 -0.055141788 0.02374386 0.120159045 -0.03126465 0.12753165
-0.069319546 0.05939407 0.11843862 0.053784244 0.16777448 0.1284578 0.07426671 0.034422204
0.057861302 -0.0050675552 0.077141404 -0.07061234 0.19956164 0.037449367 0.1271761 -0.21615988
-0.21502785 0.23134607 0.08359776 -0.0653826 -0.07105013 0.0999676 -0.062589616 0.10857776
0.35997522 -0.25449094 -0.015756141 0.15955858 0.1301408 -0.04042799 -0.27243325 -0.09948189
0.2006212 0.021537779 -0.018158784 -0.22667448 0.124267936 0.21776968 -0.10853444 -0.05411426
-0.2357899 -0.02546005 -0.07855299 0.00045039892 0.023245603 -0.016326299 -0.03102398 -0.20029782
0.0521536 0.3435857 -0.04753154 -0.50010157 -0.14596051 0.076587304 0.12479239 -0.082625054
0.038970076 0.1496189 0.030003944 -0.15235712 -0.27796936 -0.117775515 -0.013089567 -0.2528538
0.016836775 -0.15497765 -0.693761 0.14157017 -0.026757533 -0.21828413 0.08314068 -0.21398474
-0.04827149 -0.08062562 0.12340604 0.15251085 -0.254546 0.035111893 0.24699305 0.04065733
-0.14815976 -0.13501468 0.10428927 -0.0028700212 -0.023259982 -0.21638678 -0.1655038 -0.06313357
0.06804747 0.14250544 0.006197835 -0.06189724 -0.12794794 0.12145969 0.027881965 -0.059901692
-0.10605905 -0.059271235 -0.15892239 -0.051815357 -0.06689995 -0.04845923 -0.009589569 0.25841877
0.03176982 -0.26617232 -0.058283985 0.14228714 0.5253659 0.08544141 -0.105414495 -0.025154613
0.06043703 0.053910065 0.06353593 -0.14232068 0.032655064 0.19386916 0.4786499 0.035970334
0.02143723 0.0117665995 -0.031609718 0.0643105 0.04764877 0.13137329 0.39306435 -0.4419191
-0.2929499 -0.6046183 -1.7511841 -0.056107163 0.017170975 -0.01721396 -0.03211792 -0.008630181
-0.0010514364 0.07062402 -0.0134606445 0.039650794 -0.031110782 0.08291342 0.09089922 0.14263666
0.17619286 0.17310172 -0.072584055 0.101938814 0.07143657 0.09291788 0.13097508 0.029740999
-0.03811779 0.095274225 0.06882404 0.042941168 0.0019122056 0.0013362172 -0.019595133 -0.093298696
0.07576048 -0.09679376 -0.0013607771 -0.22286259 -0.1387269 0.13224162 0.046362396 0.35270885
-0.010054048 0.1516031 -0.006300761 -0.00033683516 0.11341822 -0.10545422 -0.24439475 -0.0016760558
0.072258934 0.5366133 -0.1108824 -0.0022691558 0.020575054 -0.15303059 0.12788084 -0.17821644
-0.07601537 -0.13510859 -0.0042268946 0.32916144 -0.055253036 0.016220521 -0.029621517 0.15628138

fc1.bias f4 [64]
00000000: b55e d93d f0ec 9e3a a82c 4abe fcc0 2bbd
00000010: 21be 293e 4130 d63c 441a 10be ff7e b33d
00000020: 7313 79bd 31c3 fbbd 0af4 183e 56e6 1d3e
00000030: cad3 0b3e a161 fe3d e139 e0bd 842a 46bd
00000040: 3168 693d 2bd0 fb3c c0df e43c 3484 3abe
00000050: ef4c 19be 685f 0e3d 38fa f43a 3697 a1bd
00000060: f98a 49be 3b6f e03d 8d93 b7bd c356 2abe
00000070: be7e f23d 8d13 2b3e b3b6 3ebc 82f7 47be
00000080: 2cb9 473d c08e 85bc 014e 11be 61a2 a13c
00000090: 9f69 b2bd 70eb 803d ef50 febc 94ac b4bd
000000a0: 790d 81bd 68a3 023d e9d0 c9bd 1689 473e
000000b0: b857 653d 6810 82bd 1c77 1a3d e811 20be
000000c0: f89c aabd 80d7 c53d a419 2ebe 4626 bc3d
000000d0: bc33 c4ba 02a6 4fbd b0c8 50be 4b35 28bc
000000e0: 2536 f63d 52ed babd 3f27 a1bd f648 03be
000000f0: 34a0 4a3c 6c3d 7cbc 0b5b b63d 05f0 243d
0.10613767 0.0012125056 -0.19743598 -0.04193209 0.16576435 0.026146056 -0.1407252 0.08764457
-0.060809564 -0.12293089 0.14936844 0.15419897 0.1365501 0.12420965 -0.109485395 -0.04838039
0.05698413 0.03073891 0.027938724 -0.18214494 -0.14970754 0.034758955 0.0018690294 -0.07890169
-0.1968192 0.109587155 -0.0896369 -0.1663466 0.118405804 0.16706677 -0.011640239 -0.1952801
0.048760578 -0.01630342 -0.14189912 0.019730749 -0.08711552 0.06294906 -0.031044452 -0.08821979
-0.06301398 0.031894118 -0.098542996 0.19485888 0.05599186 -0.063507855 0.037711248 -0.1563183
-0.08330721 0.09660244 -0.17001969 0.091869876 -0.0014969031 -0.050695427 -0.20389056 -0.010266612
0.12022046 -0.091272965 -0.07868814 -0.12820801 0.012367297 -0.0153955035 0.08904084 0.040267963

fc2.weight f4 [64, 64]
00000000: 1ba5 3c3e d741 063e 6add 0a3e 25ef 273e
00000010: 2a86 35be 7deb 8dbd c441 9ebd 54cf 26be
00000020: 198e cabe 0c5f 1cbe 576e 203e 799b c6bd
00000030: 46b7 b93d 7da0 183e c462 fdbd bfa1 58bd
00000040: 1b52 d1bd 5b19 96be 96f5 c13d b5ad a43d
00000050: 6aea 333d 1c08 9abe d3cd 4f3e 627e a1bc
00000060: 659a 123e f02a bebe 0472 e73d da4f c63c
00000070: 5dbf 3e3e f83b e83b 90e6 523e 363b 50be
00000080: 2183 c3bd f315 76be b61a c4bd 6e15 0dbe
00000090: dee8 e13d d95b 413e f613 b03d 8061 003e
000000a0: 570b ddbe cb67 79bd 059f 713e 740e 84be
000000b0: 2b08 133d 1075 37be 75ce bbbe 854d b1be
000000c0: a078 c8bd ed69 1a3e 1e7a c7bc 819e 873d
000000d0: 25b1 12be 181d 533e 9a16 36be 9e99 b5bd
000000e0: 0f22 08be 7207 bdbd f011 87bd 6c7b 74bd
000000f0: 1866 963c 7929 3f3e 6e63 cf3d 3a83 153d
00000100: 72be bc3d f0d4 5e3e 6e10 273d 00de 89bd
00000110: aab3 c3bb 3bee 983e 29e1 82be b7aa c0bd
00000120: 036c 76bd 68c1 4bbe 2079 f43d 73d4 0a3e
00000130: cb56 0bbe 44ed 1e3c aec2 23be 9934 82bd
00000140: 1be4 333e 678b ef3d a8af 2d38 b6e9 8a3d
00000150: dd5e ce3c 088e 85bd 18fa 6b3e 52ff 80bd
00000160: b42f 353d 82bb 093e 9067 38be 3e59 12be
00000170: 2c49 c9b9 ab87 503e 6ba0 933c 9f7b 643c
00000180: 5a22 0ebd a7de 1c3c 6f19 0dbe 6798 25bd
00000190: b20e 55be 7c9f cdbd 4957 c1bc 2c44 28be
000001a0: 2e6d 20bd 4500 e9be 2039 5d3d 8496 9dbd
000001b0: 90f5 a83d a63f 02be 43a6 d4bd 28d2 3fbd
000001c0: f86b 83bd 328b f1bd 516c 7f3c 88a0 603e
000001d0: d23b 00be cc90 76be 56a3 bebd 8e75 ba3b
000001e0: 397f 81be c989 81bb f40b 953e 14df 8a3d
000001f0: 6682 15be ef3c 2d3d 38fc 00be 7191 06bf
00000200: 4ea8 9bbe f035 21be 1627 a63d 9d2d 9cbd
00000210: abca 0fbb 8c19 113e 6448 163d 2384 84bc
00000220: 8e32 0e3e c34c 93be cc5e 1bbe c184 8b3d
00000230: 51d9 c23d 1014 50ba a8c1 89bd 8b51 4b3a
00000240: ed46 1bbe 7838 a0bd 5af4 85bd 64c7 37bd
00000250: 736c 2fbe 0248 e23c cb65 b63d 6cea d73c
00000260: e532 b33b 5eb0 bebd 8c53 88bd a3e4 be3e
00000270: e469 23bd fb2e e53d fc4f ca3d b0e6 943d
00000280: 157b 37be 91d2 c7bd e5d4 f5bd 9edd 853d
00000290: a6cd c23e 48e7 2e3e 92a7 abbc a8f1 ce3d
000002a0: 8e1e 2a3c f2eb 4ebe 6a64 c53d 4898 80bd
000002b0: 2e3c dcbd ad46 323e 3481 043d f5de 40bb
000002c0: 0f5b e83d 700b 633e bde4 46be 66d6 fc3d
000002d0: 3f44 aebc 0dfb ce3e cd75 9bbe 8bd7 73bd
000002e0: f7ed 003e 47c9 99be dbd2 ea3d 5117 46bc
000002f0: 1c72 b5bd b7e3 dcbb 51fe 183d baf1 093f
00000300: 521a c83d 0424 0ebe 94ba 8ebe 024f 273d
00000310: ebd9 16be 4037 4ebe 533b b6be 47c6 93bd
00000320: d5b6 25be 6bc1 b0be 9ee9 b53d 2208 c43c
00000330: a1d5 29be f3fe 4a3e 5b89 92be 0cca 86be
00000340: 6384 50bd 2e58 45bd 146e d23c 30d7 ccbd
00000350: 20f2 973e 43d2 9eba 0e97 13be b5fa 0d3e
00000360: 1b76 243e f37f d8ba 9a27 903e 5ad4 3cbe
00000370: d041 05bd 828f bebe c18c 49be 63bc 92be
00000380: 9f3a 33bd b764 08bf 0ce1 9bbe 4b3b 043d
00000390: 1154 1ebe 0de0 433e 4922 f03c fd82 0abe
000003a0: db46 75be fa8f 1b3e b77f 523e 63c3 f8bc
000003b0: 5200 9bbe 3753 f5bd d75c a9bd b6d1 fdbb
000003c0: 16fe a7bd 4d2d 8ebd 2a84 4fbd 554e 033e
000003d0: 066f 8d3e 130c 963e 022c e2bd a44b 953d
000003e0: e656 0d3e a339 05bf 2a5c 8ebe 977a 183e
000003f0: 7382 8ebe db16 a63d 60e8 8fbd 12ca 65bb
0.18422358 0.13111053 0.13561025 0.1639982 -0.17726961 -0.069296815 -0.077273875 -0.16290027
-0.39561537 -0.15270633 0.15667091 -0.09697623 0.0906816 0.14904971 -0.12372354 -0.052888628
-0.102207385 -0.2931622 0.0947067 0.080409445 0.043924727 -0.30084312 0.2029336 -0.019713584
0.1431671 -0.37142134 0.11301044 0.024207998 0.18627687 0.007087227 0.20595765 -0.20335087
-0.09546495 -0.2403181 -0.09575407 -0.13777706 0.11030744 0.18882693 0.08597557 0.12537193
-0.43172714 -0.06089 0.23595817 -0.25792277 0.03589646 -0.1791575 -0.36680952 -0.34629455
-0.097886324 0.1507947 -0.024350222 0.06622029 -0.14325388 0.20616567 -0.1778206 -0.08867191
-0.13294242 -0.09229936 -0.06595218 -0.059688017 0.018359229 0.18668164 0.101263866 0.0365021
0.09216012 0.21760917 0.040787153 -0.06731796 -0.0059723454 0.29869255 -0.2556241 -0.09407561
-0.0601616 -0.19897997 0.11937165 0.13557605 -0.13607328 0.009700123 -0.15992233 -0.063576885
0.17567484 0.11696511 4.1410007e-05 0.06782858 0.025191719 -0.06521231 0.23044622 -0.062986985
0.044234946 0.13450435 -0.18008256 -0.14291856 -0.00038392225 0.20364253 0.01802083 0.013945489
-0.03470073 0.009574569 -0.13779233 -0.040428545 -0.20806387 -0.10040185 -0.023601191 -0.16432256
-0.039166622 -0.45508018 0.054009557 -0.07694724 0.08249962 -0.12719592 -0.103832744 -0.04683128
-0.06417078 -0.117941275 0.0155897895 0.21936238 -0.1252282 -0.24078673 -0.093084976 0.005690283
-0.25292376 -0.003953193 0.29110682 0.0678083 -0.14600524 0.04229444 -0.12596214 -0.52565676
-0.30401844 -0.15743232 0.08112924 -0.076258875 -0.0021940868 0.14169902 0.03669013 -0.016176289
0.13886473 -0.28769502 -0.15172881 0.0681243 0.09514106 -0.000793756 -0.0672639 0.00077559863
-0.15163775 -0.078232706 -0.06540747 -0.044867888 -0.17131214 0.027622227 0.08906134 0.026356898
0.0054687136 -0.09310983 -0.0665656 0.3728381 -0.039895907 0.111906014 0.09878537 0.07270563
-0.17918046 -0.09756959 -0.12003497 0.06536411 0.38047522 0.17080414 -0.020953927 0.10104686
0.010383261 -0.20207193 0.09638293 -0.06279045 -0.10753666 0.17409773 0.03234978 -0.0029429768
0.11345493 0.22172332 -0.19423194 0.12345581 -0.021272777 0.40425912 -0.30363312 -0.05953173
0.12590776 -0.30036375 0.11465999 -0.01209052 -0.08859655 -0.006741013 0.03735191 0.5388447
0.09770645 -0.13880926 -0.27876723 0.040846832 -0.14731567 -0.20138264 -0.35592136 -0.07215553
-0.16183026 -0.34522566 0.088824496 0.02392966 -0.16585399 0.19823818 -0.2862042 -0.26326025
-0.050907504 -0.048179798 0.025687255 -0.10001981 0.29676914 -0.0012117106 -0.14413092 0.13865168
0.16060679 -0.0016517624 0.28155214 -0.1844038 -0.032533467 -0.37218863 -0.196826 -0.28659353
-0.043757077 -0.5327868 -0.30445135 0.03228311 -0.15461756 0.19128437 0.029313223 -0.1352653
-0.2395281 0.15191641 0.20556532 -0.030366605 -0.30273682 -0.119787626 -0.08269661 -0.0077459468
-0.0820276 -0.06942234 -0.05066315 0.1282285 0.27623767 0.29306087 -0.1104355 0.07289818
0.1380268 -0.5204107 -0.2780469 0.14890514 -0.278339 0.08109828 -0.07026744 -0.003506307

fc2.bias f4 [64]
00000000: c4d8 d8bc aded 34bc 3d35 083e 8da9 1fbc
00000010: 3df3 f93d 9d85 77bd 3ce5 093c a337 d93d
00000020: 9445 573e a838 e83e e939 8fbc eaac 873d
00000030: c854 613e 9e97 bcbd 7fe2 9ebd fd28 56bc
00000040: b189 8b3c d7ae 57bd 0a81 d1bd 8e00 683e
00000050: d607 e63d 9e64 e13e b42c 4abe b8f0 2e37
00000060: fe59 80bd ccbb d6bd 54fb d53b 4452 37be
00000070: 1707 5ebd 40b8 8d3e 2596 cbbb 02b2 ebbd
00000080: 2dbc 03bd 1f8d 6f3e 6070 1abc 7e74 513e
00000090: c456 d0bd af95 13be ead7 d23d c107 b5bd
000000a0: 717d 99bd fe5a f63e cb17 b13e de0d a4bd
000000b0: a247 043e 5f66 90bd 48cf fdbc 15d3 1cbe
000000c0: b4ef b13d 413f ecbc d3db 1abe 3964 973e
000000d0: 44d5 86bd 9098 bfbc b88d 6f3d 75ab afbd
000000e0: 660c 30be 6f0c 3abe 0529 58bd e956 fa3b
000000f0: 65ca 34bd 8d4e b93d ff36 683d e6c0 73bd
-0.02647055 -0.011042994 0.13301559 -0.009745014 0.12204597 -0.060430158 0.00841647 0.10606315
0.21022636 0.45355725 -0.017483668 0.066247776 0.22004998 -0.09208606 -0.077580445 -0.013071296
0.01703343 -0.052656975 -0.102296904 0.22656462 0.11231963 0.44022077 -0.19743615 1.0427255e-05
-0.06267165 -0.10485038 0.006530205 -0.17902476 -0.05420598 0.27679634 -0.006212967 -0.11508562
-0.03216188 0.23393677 -0.009426206 0.20454594 -0.10172799 -0.14412569 0.102950886 -0.088393696
-0.07494629 0.48116297 0.34588465 -0.080104575 0.12917951 -0.07050776 -0.030982628 -0.15314896
0.08688298 -0.028838756 -0.15122919 0.2956865 -0.06583646 -0.023388177 0.058484763 -0.08577625
-0.1719223 -0.18168806 -0.052773494 0.007639755 -0.04413833 0.090481855 0.056693073 -0.059510134

fc3.weight f4 [4, 64]
00000000: 606a 95be 1c13 a23e fb1d 123e 8490 03bf
00000010: 6583 b53e de89 c73e 24b9 4c3e deb8 91bd
00000020: c8ef 053e 5846 2b3e 082e f13c 50e4 793e
00000030: c9fd 123e 7426 13be e48b 5ebd 4ccc 143e
00000040: cb3d 81be 4fe0 133c 17d8 db3d fb0f 813e
00000050: 8961 023e 06bb 163e 9d39 f53c 3df8 403e
00000060: 1b9b 2c3e ec3c 75bd e83f 6cbe b29d 92be
00000070: 0d4e 2ebe bc61 d63d 5a9c 9bbe a314 d23e
00000080: 1646 a43e c95e 173e 2f45 aa3d 02c5 cdbc
00000090: 3014 b6bc 520f 2d3d 34e1 e33c ab83 a0bc
000000a0: 8d4e 073d f6c9 463e 30fe c23d ae5e b63c
000000b0: 2a59 eb3d ebce 083c e1ba 203e db22 ae3e
000000c0: 6339 8f3d c362 633e 9303 66be c328 053f
000000d0: 0551 9f3e 8800 84bd bcba 13bb f5e7 403e
000000e0: 6c44 8abe a5f5 d53b 1e26 053d 3e53 813e
000000f0: b712 19bf d898 b23e 9ff8 053e 430e 2c3d
00000100: 8d21 883e dfd0 9e3e 6a43 5e3e ee07 5ebe
00000110: 954e a33e 453d fa3d 2fcd 463e 6b35 df3d
00000120: 3de3 e13d 5707 303e 8163 1e3e a8a5 3f3e
00000130: 1ba7 a83d a01d 3b3e ead7 573d 0a83 3a3e
00000140: 4f9b 15be 762d 1fbd 8403 953e 4152 123e
00000150: b464 3e3e 4b6c 3a3e 2a0a f83c d443 523e
00000160: 1777 6a3e c5f1 fcbd ce71 c0bd 1503 15be
00000170: 78af 02bf 483f 113e e650 33be ac60 fe3e
00000180: d361 933e a53f 4bbb 821b a23d 9eb5 123e
00000190: cc10 913d 910d 19be c284 613d 1933 8dbd
000001a0: 6559 063e be07 393e 472c 773d ff6f 8c3e
000001b0: 3bf6 cc3d 1b89 143c 6059 cd3d f8c6 cfbc
000001c0: f379 953d ebd5 883e 3919 aebe a323 bb3e
000001d0: 409f e23e 3995 08bd 609c 813d 4c74 6f3e
000001e0: d003 09bf 59e5 94be 903f 733e 900a 423e
000001f0: 72d7 8dbd aded a53e 961d acbe a571 f93c
00000200: b943 b2be ae2b c83d 1842 183e e838 10be
00000210: ba6a a23e 4025 883e b3d2 493e a548 71bd
00000220: 2b46 a83d eebf 273e 936e 26bd 1f7f 223e
00000230: 5d76 333e 2d6d 00bf 7c8c 67be dec8 8c3e
00000240: 2687 c63e 6f79 81be c9f2 9cbe 0756 ab3d
00000250: 7c92 b83d 2faa 513e 5cbc 24be 4fd0 fb3d
00000260: 94a3 f93e 5f48 93be 4b41 98be f3e0 30be
00000270: d2f4 12bd 7540 3e3e 6587 0b3c 912b 4a3c
00000280: 4285 14bd de6f 953d 3fd9 a53e 3fbe 2b3e
00000290: cb00 413e 9eb0 15be a4e5 133c 6049 8b3e
000002a0: 77a7 8f3d 0e0c 3b3e 3c15 3a3e d6a6 343e
000002b0: e125 1ebd c8d4 473d 0190 463e 4bb3 88bc
000002c0: 1b5d 263e 4439 4a3e fe84 33be 8cb5 b53e
000002d0: 0d9d 0d3f 6e29 f1bd a315 143e e8d8 0b3f
000002e0: f256 b03c 6915 70be dafd 9e3e bfd9 0c3e
000002f0: 7f4a c3be 915a 323e 897f fabc f613 bbbe
00000300: 29ce 73bd 1078 553e 74ac 893e b331 8ebe
00000310: 7d4d 953d b10f 213e 1a91 adbc a112 ba3e
00000320: 1345 da3d 8563 2f3e a295 8c3e 43e3 7fbd
00000330: c59a 083e 0941 dcbd 4847 873e 4651 90be
00000340: 8a08 123e 8787 893e c908 dd3e f93c f83d
00000350: a442 503c bc5b 863e 7a5d 65be 9a77 a03e
00000360: 979d 7d3e 672f 10be ba81 37be 4b7f 083d
00000370: 1310 c53e 492f b03d c120 ccbe c706 e53e
00000380: 20eb 483e 2db6 083e 7207 713b 447a 313e
00000390: 60c0 92be 7be4 7b3e bdde d53e 380d fe3d
000003a0: 4161 19bf bd87 3c3e 00ba 4c3e ad1f 98be
000003b0: 1c20 273e e9db 6fbe 4b88 a93d 782f 823c
000003c0: b381 5f3e 59f8 373e 64e0 7c3d 23ca a03e
000003d0: 0ffb afbd 7edf fd3d 26b1 403d 1457 fe3e
000003e0: 60d3 46be 934d 99be cc26 343e 1ccb 003e
000003f0: 696d 8bbe 222b 063e 8b32 03bd f1e9 bc3d
-0.2918272 0.31655204 0.14269249 -0.5139239 0.3545181 0.38972372 0.199925 -0.07115339
0.1307975 0.16726053 0.029440895 0.244035 0.14354624 -0.14370137 -0.05433263 0.14531058
-0.25242457 0.009025647 0.10734575 0.25207505 0.12732519 0.14719781 0.029934699 0.18844695
0.16856043 -0.059872553 -0.23071253 -0.28635937 -0.17021962 0.1046786 -0.30392724 0.4103137
0.3208472 0.14782251 0.08313977 -0.025118355 -0.022226423 0.04225094 0.027817346 -0.019594034
0.033033896 0.1941298 0.09521139 0.022261944 0.11491616 0.008350114 0.15696289 0.34010968
0.069933675 0.22205643 -0.22462301 0.5201532 0.311165 -0.06445414 -0.0022541722 0.18838485
-0.27005327 0.0065295273 0.032507055 0.2525882 -0.5979418 0.34882236 0.13083123 0.04200579
0.26588097 0.3101873 0.21705404 -0.21682712 0.3189589 0.122187175 0.19414209 0.108988605
0.110296704 0.171903 0.15467645 0.18715537 0.08234998 0.1827302 0.052696146 0.1821405
-0.14610027 -0.038861714 0.29104245 0.1428919 0.18593103 0.18205373 0.030278284 0.20533687
0.22896992 -0.123508014 -0.093967065 -0.14551957 -0.51048994 0.14184296 -0.17511329 0.4968313
0.2878557 -0.0031013277 0.07915403 0.14327094 0.07083282 -0.14946581 0.05505825 -0.06894512
0.13120039 0.1806936 0.06034496 0.27429196 0.10007902 0.009065892 0.100268126 -0.02536343
0.072986506 0.26725706 -0.34003618 0.36550626 0.44262123 -0.033345435 0.06328654 0.23384207
-0.5352144 -0.29081228 0.23754716 0.18949342 -0.069258586 0.32407895 -0.33616322 0.030449698
-0.34817293 0.09773956 0.14868963 -0.14084208 0.3172205 0.2659092 0.19709282 -0.05890717
0.082165085 0.16381809 -0.040632796 0.15868805 0.17525621 -0.5016659 -0.22612184 0.27497
0.38774985 -0.2528796 -0.3065398 0.08366018 0.09012315 0.20475076 -0.16087478 0.12295591
0.48757613 -0.28766152 -0.29737315 -0.17273311 -0.03587801 0.18579276 0.008516167 0.012339489
-0.036259897 0.072967276 0.32392308 0.16771792 0.18847959 -0.14618155 0.009026919 0.27204418
0.07014363 0.18266317 0.18172163 0.17641768 -0.038610343 0.04878691 0.1939087 -0.016687056
0.16246454 0.19748408 -0.17531201 0.35490072 0.55317765 -0.1177548 0.14461379 0.5462785
0.021525834 -0.23445667 0.31053048 0.13754939 -0.38142774 0.17417361 -0.030578392 -0.36538666
-0.05952278 0.20846581 0.26889384 -0.27772292 0.0729017 0.15728642 -0.021187354 0.36342338
0.10657706 0.17127807 0.2745791 -0.062472593 0.1334029 -0.10754592 0.2642157 -0.28187007
0.1426107 0.26861212 0.43170765 0.121210046 0.012711201 0.26241863 -0.2239894 0.3134125
0.24767147 -0.14080583 -0.1792058 0.03332452 0.38488826 0.08602769 -0.3986874 0.44731733
0.19620943 0.13350745 0.003677812 0.17331797 -0.28662395 0.24598877 0.41771498 0.12404865
-0.5991402 0.18411155 0.19992828 -0.29711667 0.16320843 -0.23423733 0.08277949 0.015891775
0.2182682 0.17965831 0.061737433 0.31404218 -0.085928075 0.123961434 0.047043942 0.4967581
-0.1941657 -0.29941997 0.17592925 0.1257748 -0.2723191 0.13102391 -0.032030623 0.09224308

fc3.bias f4 [4]
00000000: 4bff 8b3e a6dd 8a3e 0a62 483e 534d 1d3e
0.2734321 0.2712223 0.19568649 0.15361528
