data/2019-03-01-checkpoint_dqn.pth (torch_old, 28417 bytes, 6 tensors)

fc1.weight f4 [64, 37]
0	0x3dde3e62	0.10851742
1	0x3c998444	0.018739827
2	0xbeaecb71	-0.34139588
3	0xbeb062e4	-0.34450448
4	0x3d04dad5	0.032435257
5	0x3c8fee5e	0.017569717
6	0xbe12c1d7	-0.14331757
7	0x3e54528b	0.20734613
8	0xbe212ae8	-0.15739024
9	0xbec664a8	-0.3874867
10	0x3be5cb83	0.007012786
11	0xbc992ccd	-0.01869812
12	0xbe9a2c03	-0.30111703
13	0xbe2557de	-0.161468
14	0xbd4b979f	-0.049705144
15	0x3b66b70c	0.003520432
16	0x3d9346d0	0.07191241
17	0x3d866432	0.065620795
18	0xbe86a975	-0.2630116
19	0x3cd9a48b	0.026567718
20	0x3d60d297	0.054888334
21	0x3db29139	0.08719105
22	0x3e523f27	0.20531903
23	0xbe9e6654	-0.30937445
24	0xbe6891fa	-0.22711936
25	0x3c470887	0.012148029
26	0x3e1a165e	0.15047595
27	0xbe033da0	-0.12816477
28	0xbedfbf46	-0.43700618
29	0xbd84a351	-0.06476463
30	0xbdbadbfc	-0.0912399
31	0x3de2f803	0.11082461
32	0x3d85817c	0.06518838
33	0xbe6e7918	-0.23288381
34	0xbe0941c8	-0.13404
35	0xb8efe852	-0.00011439681
36	0xbce87a69	-0.028378682
37	0x3e2157e7	0.15756188
38	0x3e1a64c7	0.15077506
39	0x3dc1223b	0.09430357
40	0x3d088e7c	0.03333901
41	0xbe533d54	-0.20628864
42	0x3e1397bf	0.14413355
43	0xbe09d9e4	-0.13462025
44	0xbde311ef	-0.11087405
45	0xbdc4e23e	-0.09613465
46	0xbf514c6f	-0.81757253
47	0x3e10d919	0.14145316
48	0xbda0a3cc	-0.07843742
49	0x3d9f7c72	0.07787408
50	0x3e6aed90	0.22942185
51	0x3e4c581a	0.19955483
52	0x3dae5b65	0.08513526
53	0xbd4714ab	-0.048603695
54	0x3e285fa0	0.16442728
55	0x3df2ae7c	0.118496865
56	0xbca566a9	-0.020190554
57	0x3e07286a	0.1319901
58	0xbdb17397	-0.08664625
59	0xbe4c5e1f	-0.1995778
60	0xbdb9ec51	-0.09078277
61	0xbd0d3ac5	-0.034479875
62	0xbd807f63	-0.06274297
63	0x3dfe862c	0.12427935
64	0x3dd17f5b	0.10229369
65	0x3d3de93c	0.046365008
66	0x3db5265e	0.088452086
67	0x3da5213b	0.08062979
68	0x3e2b52b1	0.16730763
69	0x3e1c6357	0.1527227
70	0x3dbd7a61	0.092518575
71	0x3e8e5f10	0.27806902
72	0x3d936748	0.07197434
73	0xb986d8df	-0.00025720053
74	0x3da2b6ce	0.079450235
75	0x3dd09fbc	0.10186717
76	0x3dc01209	0.0937844
77	0x3dc68a3e	0.09694336
78	0x3e0a59b0	0.13510776
79	0xbf1f488f	-0.6222009
80	0x3e1c6e52	0.15276459
81	0x3e35fe4a	0.17772785
82	0x3e2f9671	0.17147233
83	0xbdbff724	-0.0937331
84	0xbca06d18	-0.01958327
85	0xbcffa63d	-0.031207198
86	0xbbc91583	-0.0061365976
87	0x3dc5a6e2	0.09650971
88	0x3da824eb	0.082101665
89	0xbd933f19	-0.07189769
90	0x3d9bcf4c	0.07607898
91	0x3dd3bf18	0.103391826
92	0x3e1ccdb7	0.15312849
93	0x3d8bf538	0.06833881
94	0xbe3d34ff	-0.18477248
95	0xbd52eebc	-0.051497206
96	0xbcac2490	-0.021013528
97	0x3db12e46	0.08651404
98	0x3e1d9688	0.15389454
99	0xbefc86dc	-0.4932164
100	0x3e3e3425	0.18574579
101	0x3e3f919a	0.18707886
102	0x3da3a16f	0.079897754
103	0xbe32e822	-0.17471364
104	0xbe62d55c	-0.22151703
105	0x3d9ca9c6	0.07649569
106	0xbd8b6cc0	-0.06807852
107	0xbda19b28	-0.07890922
108	0xbd9c0018	-0.076172054
109	0x3d91cef5	0.07119552
110	0x3c906eb8	0.01763092
111	0x3da6687c	0.081253976
112	0x3d1e8d17	0.038708773
113	0x3e094bfe	0.13407895
114	0x3dbdfe0a	0.0927697
115	0xbd693320	-0.056933522
116	0xbd8ae9e6	-0.06782894
117	0xbd1c186a	-0.03810922
118	0x3debae26	0.115078256
119	0x3df4d0ef	0.119539134
120	0xbb0dddae	-0.0021647024
121	0xbdfb43c5	-0.122687854
122	0x3e24d46e	0.1609666
123	0x3deb4d97	0.114894085
124	0xbdbb2c8e	-0.091393575
125	0x3c8ca220	0.017167151
126	0xbe0776f6	-0.13228974
127	0xbd9fe216	-0.07806794
128	0x3cb284a5	0.021791765
129	0xbda97204	-0.082737
130	0xbe21c93d	-0.15799423
131	0xbd3d93af	-0.04628342
132	0x3e16c19e	0.14722297
133	0x3e0b904f	0.13629268
134	0xbc8f05b6	-0.017458778
135	0xbd29e037	-0.041473594
136	0xbe2310ba	-0.1592435
137	0x3da0e2e3	0.07855775
138	0x3e6101a3	0.2197328
139	0x3d86449d	0.06556056
140	0x3d703335	0.058642585
141	0x3e891f52	0.26781708
142	0xbe33c32c	-0.17554921
143	0xbdc596d7	-0.09647911
144	0xbea03a94	-0.31294692
145	0xbfbacf7d	-1.459457
146	0xbccb33ab	-0.02480491
147	0x3ba4377a	0.005011496
148	0xbddc1ff0	-0.10748279
149	0xbe337db2	-0.17528418
150	0xbe381105	-0.17975242
151	0xbe7b3a03	-0.24533848
152	0x3da25349	0.07926042
153	0x3e1f26a1	0.1554208
154	0x3de6f1a0	0.11276555
155	0xbea10ad4	-0.31453574
156	0xbe8f7a02	-0.28022772
157	0xbf14c318	-0.5811019
158	0x3bedea62	0.0072606066
159	0xbbd2a928	-0.0064288564
160	0xbdaa7d1d	-0.08324645
161	0xbea0a37b	-0.31374726
162	0xbe963351	-0.29336026
163	0xbd8e67bd	-0.0695338
164	0xbdfebce0	-0.12438369
165	0xbe4f423f	-0.20240115
166	0x3daad9b1	0.083423026
167	0x3e80ace7	0.25131914
168	0xbdbc8a6b	-0.09206089
169	0xbd6b2a57	-0.057413425
170	0x3d181ff9	0.037139867
171	0xbdfbc1e1	-0.12292839
172	0xbdfd663b	-0.123730145
173	0x3d2229a0	0.039590478
174	0xbe2d7eea	-0.16942945
175	0x3dc5a728	0.09651023
176	0xbd266374	-0.04062219
177	0x3d9a1594	0.07523647
178	0x3dee354a	0.11631258
179	0xbdaec3be	-0.085334286
180	0xbdb20b06	-0.08693509
181	0x3db640b0	0.08899057
182	0x3e259e14	0.16173583
183	0x3d74cf39	0.059767935
184	0x3d02895e	0.031869285
185	0xbe4c9bcb	-0.19981305
186	0xbba7b507	-0.0051180157
187	0x3dd7ccc0	0.105371
188	0xbe0cd155	-0.13751729
189	0x3d119014	0.035537794
190	0x3d01ea4e	0.03171759
191	0x3ea046d9	0.31304052
192	0xbe41f0a9	-0.18939461
193	0xbc8cfaef	-0.017209498
194	0xbe837cee	-0.2568125
195	0xbe194fc2	-0.14971831
196	0x3bbb43c4	0.0057148654
197	0xbd420fa9	-0.047378216
198	0xbc91f75a	-0.017818142
199	0x3dc616cd	0.09672318
200	0xbe144148	-0.14478028
201	0x3e412d0b	0.18864839
202	0xbe416677	-0.18886743
203	0x3db23dbb	0.087031804
204	0xbc872251	-0.016495856
205	0x3d91a203	0.071109794
206	0xbd0af05e	-0.03392064
207	0x3d48af67	0.0489954
208	0x3e43fcd3	0.19139414
209	0x3ddb913a	0.10721059
210	0xbe3b5fd5	-0.18298276
211	0x3db06cb8	0.086144865
212	0xbd45272b	-0.048133057
213	0x3e24c786	0.16091737
214	0x3cfadc10	0.030622512
215	0x3e15267a	0.14565459
216	0xbe6a890a	-0.22903839
217	0xbe2eba29	-0.17063202
218	0x3d698dd7	0.057020035
219	0xbf69a12d	-0.9126156
220	0xbc978be7	-0.018499328
221	0x3a72c4c2	0.00092608866
222	0x3c2d7aa9	0.0105883265
223	0xbd8852da	-0.06656428
224	0x3d77a352	0.06045849
225	0xbe1a33a7	-0.15058766
226	0xbe961707	-0.29314443
227	0xbc5426a0	-0.012948662
228	0xbd7ba650	-0.061437905
229	0x3cbe8db5	0.02326093
230	0xbe678603	-0.22609715
231	0x3ead34aa	0.33829242
232	0xbd1adbcb	-0.037807267
233	0x3e01c7d0	0.12673879
234	0x3da7e728	0.081983864
235	0xbd7fcc53	-0.062450718
236	0x3e4c1e67	0.19933473
237	0xbbea836a	-0.007156779
238	0x3d87a972	0.06624116
239	0xbdd17665	-0.1022766
240	0xbe42494c	-0.18973273
241	0xbe33ac67	-0.17546235
242	0xbdd881b3	-0.10571613
243	0xbd1b07f7	-0.037849393
244	0x3d2bddd0	0.041959584
245	0xbe166b21	-0.14689304
246	0x3e9bbd79	0.30417994
247	0xbe6a3c6e	-0.22874615
248	0x3dbd8a0a	0.092548445
249	0x3cc7cdf8	0.024390206
250	0xbe53d0a3	-0.20685057
251	0x3bcfa37e	0.0063366285
252	0x3db7d717	0.08976572
253	0xbe2ab295	-0.16669686
254	0x3c8ac0c3	0.01693762
255	0x3d54579b	0.05184136

fc1.bias f4 [64]
0	0x3ddf4bad	0.10903106
1	0x3d1ccab2	0.038279243
2	0xbe31dcd3	-0.17369394
3	0xbd209e76	-0.03921362
4	0x3e03392c	0.12814778
5	0xbd76eb88	-0.060283214
6	0xbddd5aa7	-0.10808306
7	0xbc38936f	-0.01126562
8	0x3d73dc4a	0.059536256
9	0xbe4a5648	-0.19759476
10	0x3e05a44a	0.13050953
11	0x3e361201	0.17780305
12	0x3e657d7e	0.22411153
13	0x3e3e7848	0.18600571
14	0xbdd93aa6	-0.106068894
15	0xbc5019ee	-0.012701495
16	0x3cedf440	0.029047132
17	0x3c89f9a3	0.016842669
18	0x3d1c375e	0.03813874
19	0xbe2364de	-0.15956447
20	0xbdc1cea2	-0.0946324
21	0x3db14811	0.08656324
22	0x3ce7e5d2	0.028307829
23	0xbe10e90b	-0.14151399
24	0xbe1028c2	-0.14078048
25	0x3d9dc99f	0.07704472
26	0xbd781f72	-0.060576864
27	0xbe66c7c6	-0.22537145
28	0x3dc4e2cd	0.09613571
29	0x3e181af9	0.14854039
30	0xbd6b3b5e	-0.057429664
31	0xbdd2f5f3	-0.10300817
32	0x3dceb967	0.100939564
33	0xbc83c42c	-0.016084753
34	0xbd9aa31d	-0.07550643
35	0x3d87718a	0.06613453
36	0xbd2199ce	-0.03945332
37	0x3d47325b	0.048632007
38	0xbc6d6d4d	-0.014491391
39	0xbddb0c1a	-0.106956676
40	0xbd4da644	-0.05020739
41	0xbc8c9645	-0.017161498
42	0xbe1f8fb1	-0.15582158
43	0x3e0b05de	0.13576457
44	0x3d42ad51	0.04752857
45	0xbd46a143	-0.048493635
46	0x3db8b1d6	0.090182945
47	0xbe3894e5	-0.18025549
48	0xbe0f303d	-0.13983245
49	0x3cd02bbb	0.025411477
50	0xbe0149ed	-0.12625857
51	0x3dc4d99a	0.09611817
52	0xbc4a9465	-0.012364482
53	0xbd23cd26	-0.039990567
54	0xbe44b604	-0.19210058
55	0x3dba9b75	0.09111682
56	0x3dd3e5f6	0.10346596
57	0xbdfb421a	-0.12268467
58	0xbdb1e573	-0.08686342
59	0xbdd84389	-0.10559756
60	0x3b9fd045	0.0048771226
61	0x3e158c6b	0.14604346
62	0x3dba6142	0.09100582
63	0x3daf925a	0.08572836

fc2.weight f4 [64, 64]
0	0xbc807551	-0.01568094
1	0x3e10bc8f	0.1413443
2	0xbdf7b9a9	-0.12095959
3	0xbbca95b7	-0.006182398
4	0x3e34194d	0.17587776
5	0xbd083794	-0.03325613
6	0xbd11433f	-0.03546452
7	0xbe46104d	-0.19342156
8	0x3bb7547d	0.0055947886
9	0xbdbf18e0	-0.093309164
10	0x3c1ec7cc	0.00969119
11	0x3e92b06c	0.28650224
12	0xbe637ed1	-0.22216345
13	0x3db88df1	0.09011448
14	0xbe1ccb03	-0.15311818
15	0xbe311f32	-0.17297056
16	0x3ce98070	0.028503627
17	0xbe84b1b6	-0.25916833
18	0xbd220e26	-0.039564274
19	0x3d64b91f	0.055840608
20	0x3dae9f0d	0.0852643
21	0xbe1d6611	-0.15370966
22	0x3e81d87b	0.25360474
23	0xbb37c645	-0.0028041762
24	0xbe950188	-0.2910273
25	0xbe67b9a7	-0.22629414
26	0x3ea90445	0.3301107
27	0x3d7b1e49	0.06130818
28	0xbdced6ad	-0.1009954
29	0x3e23afbb	0.15985005
30	0x3d35734a	0.0442994
31	0xbd7aef4c	-0.061263368
32	0x3e00e146	0.12585935
33	0xbe1e44e2	-0.15455964
34	0xbe1f811d	-0.15576597
35	0xbb744814	-0.0037274407
36	0xbe434ba2	-0.1907182
37	0x3eb7c02c	0.35888803
38	0xbeb204e8	-0.34769368
39	0xbdb5e8e4	-0.08882311
40	0xbeddf430	-0.43350363
41	0xbc9b5879	-0.018963085
42	0x3e94efb4	0.2908913
43	0xbe2a1a13	-0.16611509
44	0x3d3dcc71	0.04633755
45	0xbe71bc02	-0.23606876
46	0xbdc88ed8	-0.0979287
47	0x3dc958a8	0.09831363
48	0x3cb2d2a6	0.02182896
49	0xbe10436d	-0.14088221
50	0xbdf39961	-0.11894489
51	0x3dbaf629	0.091289826
52	0xbdadc601	-0.08485032
53	0xbf014000	-0.5048828
54	0x3dd6d924	0.10490635
55	0xbde6eeb1	-0.112759955
56	0xbe056acf	-0.13029025
57	0x3cdda31a	0.027055312
58	0x3b91ce68	0.0044496544
59	0x3da52405	0.08063511
60	0xbd124359	-0.03570876
61	0x3e331c35	0.17491229
62	0xbe069980	-0.13144493
63	0xbdf77823	-0.12083461
64	0x3e7a2ec4	0.24431902
65	0x3e095351	0.13410689
66	0xbd963c32	-0.073357
67	0xbd226ac4	-0.0396526
68	0x3cba03d5	0.022706905
69	0x3d86b732	0.065779105
70	0xbdaef6aa	-0.08543141
71	0xbac20779	-0.0014803252
72	0xbccdd591	-0.02512625
73	0xbe166d43	-0.14690118
74	0x3ce2aedf	0.027671276
75	0x3ed53b93	0.41647014
76	0xbe00c4ad	-0.12575026
77	0x3cdec425	0.027193138
78	0xbdc1c28d	-0.09460936
79	0xbdda9077	-0.10672086
80	0x3be5f0ec	0.0070172455
81	0xbd4a004f	-0.0493167
82	0x3d19511b	0.037430864
83	0xbd7edda6	-0.0622231
84	0x3e0055dc	0.12532753
85	0xbd95d7c5	-0.073165454
86	0x3e538dd8	0.20659578
87	0x3d54b4f4	0.051930383
88	0xbe381012	-0.1797488
89	0x3c7691d7	0.015049419
90	0xbe007bbc	-0.12547201
91	0xbdcde76e	-0.10053907
92	0x3b8f6fd6	0.0043773456
93	0x3c2cdd0c	0.010550749
94	0xbd72a3da	-0.059238292
95	0xbedeb545	-0.43497673
96	0x3c731f70	0.014839038
97	0xbe388f17	-0.18023334
98	0xbe056661	-0.13027336
99	0xbd3f0e4f	-0.046644505
100	0xbca327d3	-0.01991645
101	0x3eb00a70	0.34382963
102	0xbdab98df	-0.08378767
103	0xbdca4765	-0.09876899
104	0xbe555109	-0.20831694
105	0x3cdaecbd	0.026724214
106	0xbcfd434b	-0.030915877
107	0xbe501537	-0.20320593
108	0x3c2d7b34	0.010588456
109	0xbe1f00c6	-0.15527639
110	0xbe2910dd	-0.16510339
111	0xbdb7b228	-0.089695275
112	0xbe320ac9	-0.17386927
113	0xbae901d5	-0.0017777035
114	0xbe07099d	-0.13187261
115	0x3dd086ea	0.10181983
116	0xbdf3be31	-0.119015105
117	0xbed874e1	-0.42276672
118	0x3dc37c19	0.09545154
119	0xbe186002	-0.14880374
120	0xbcfd772c	-0.030940615
121	0xbdc73604	-0.097270995
122	0x3e866607	0.26249716
123	0x3cad7581	0.021174194
124	0xbe4a6e75	-0.19768699
125	0x3d522240	0.051302195
126	0x3d7d3318	0.061816305
127	0xbe8f5bf0	-0.2799983
128	0xbc8aab79	-0.016927468
129	0xbd5b01b0	-0.053468406
130	0xbc9629d2	-0.018330488
131	0xbd172c0e	-0.03690725
132	0x3befb8b2	0.0073157186
133	0x3d610810	0.05493933
134	0xbe07d486	-0.13264665
135	0x3db1d255	0.08682696
136	0x3e558a5d	0.20853563
137	0x3cb36279	0.021897541
138	0x3e413bd3	0.18870477
139	0xbe753358	-0.23945367
140	0x3dfc2cdb	0.12313243
141	0x3dbdf3d8	0.09275025
142	0xbd91010f	-0.0708028
143	0xbdbc3e97	-0.091916256
144	0xbddc219f	-0.107486
145	0x3ea1a360	0.31569958
146	0x3d470262	0.048586257
147	0xbe934008	-0.2875979
148	0xbe13384e	-0.14376947
149	0x3c74b9e0	0.014936894
150	0xbe629876	-0.22128472
151	0x3cfcf7eb	0.030879935
152	0xbe9a847c	-0.30179203
153	0x3e2d9af7	0.16953646
154	0x3dfc0913	0.12306418
155	0xbd545547	-0.05183914
156	0xbe4b9e70	-0.19884658
157	0x3e7debf8	0.24797046
158	0x3d273d9a	0.040830232
159	0x3dc66817	0.09687822
160	0xbd729175	-0.05922075
161	0xbc60fa9e	-0.013731627
162	0xbd0ccc59	-0.03437457
163	0xbd2062f0	-0.039156854
164	0x3cea8aad	0.028630579
165	0xbe4d7a22	-0.20066121
166	0x3d8189c1	0.063251026
167	0xbc3c6974	-0.011499751
168	0x3ed14102	0.4086991
169	0xbe19705d	-0.1498427
170	0x3d278d04	0.040905967
171	0xbdd07754	-0.1017901
172	0xbd813bdc	-0.063102454
173	0xbd809d79	-0.062800355
174	0x3d87aa42	0.06624271
175	0x3d41d027	0.04731765
176	0xbe39869d	-0.18117757
177	0x3e06a08b	0.1314718
178	0xbc9324ec	-0.017961942
179	0x3d7ebb01	0.06219006
180	0xbe978570	-0.29593992
181	0xbee5974c	-0.44841993
182	0xbda93867	-0.08262711
183	0x3d50ed2f	0.051007446
184	0x3bbef737	0.00582781
185	0xbe0a0cde	-0.13481471
186	0x3ce06773	0.027393078
187	0xbd8d2eed	-0.06893716
188	0x3dea72aa	0.11447652
189	0xbe623539	-0.22090615
190	0xbe9514b6	-0.29117364
191	0xbd10ef06	-0.0353842
192	0x3da1bdd4	0.07897535
193	0xbdba523a	-0.09097715
194	0x3dc2a2f5	0.09503738
195	0xbe6d6eba	-0.2318677
196	0xbd637dda	-0.055539943
197	0xbe0d1a0f	-0.13779472
198	0xbd5d51a5	-0.05403294
199	0xbe58fe50	-0.21190763
200	0xbdcaf700	-0.09910393
201	0xbdcad983	-0.09904768
202	0xbec6df42	-0.38842207
203	0xbef6d4be	-0.48209184
204	0xbe02757e	-0.12740132
205	0x3de9128d	0.113804914
206	0xbd2719fc	-0.040796265
207	0xbe3617b9	-0.17782487
208	0x3d7461bf	0.05966353
209	0xbe175d82	-0.14781764
210	0xbc8ef8bd	-0.017452592
211	0xbe077511	-0.13228251
212	0x3e106063	0.14099269
213	0xbc318b09	-0.010836371
214	0xbe9326e7	-0.28740618
215	0xbb6f3864	-0.0036502117
216	0xbe27ddb5	-0.16393168
217	0x3e04a436	0.12953267
218	0x3b30578d	0.0026907653
219	0xbe8469c4	-0.25861943
220	0x3d9132fc	0.070898026
221	0xbe7b4e8d	-0.24541683
222	0xbdf3bff5	-0.11901847
223	0xbdfdfeab	-0.1240209
224	0x3d947fbd	0.07250927
225	0xbe5c9d71	-0.21544434
226	0x3dbc6827	0.09199553
227	0x3cd6e65a	0.026232887
228	0xbe115860	-0.14193869
229	0x3c11296d	0.008859974
230	0x3f36d705	0.71421844
231	0xbdaefa4e	-0.085438356
232	0xbedbf205	-0.42958084
233	0xbd67e4f5	-0.056614835
234	0x3c090619	0.00836327
235	0xbe239884	-0.15976149
236	0x3d6cb7ea	0.05779258
237	0x3e25b851	0.16183592
238	0x3cef4f5e	0.02921265
239	0xbdb289de	-0.08717702
240	0x3c456465	0.012047862
241	0x3d438a1e	0.04773914
242	0xbe11c45b	-0.1423506
243	0x3c9b76db	0.018977573
244	0x3c923255	0.017846266
245	0xbe3355b7	-0.17513166
246	0xbea00ed8	-0.31261325
247	0xbd0518c8	-0.032494336
248	0xbe751013	-0.23931913
249	0x3b93e492	0.0045133317
250	0xbe788771	-0.24270417
251	0x3dc3746c	0.0954369
252	0xbef62be8	-0.48080373
253	0x3d91b877	0.07115262
254	0x3e2e78f9	0.17038335
255	0xb9a75197	-0.0003191351

fc2.bias f4 [64]
0	0xbc5d326f	-0.013500794
1	0xbd885e13	-0.06658568
2	0x3d6dd157	0.05806097
3	0x3e206f22	0.15667394
4	0x3e615da8	0.22008383
5	0xbe1a6ad6	-0.15079817
6	0xbd837471	-0.06418694
7	0x3d2aeb6d	0.041728426
8	0x3e40a828	0.18814147
9	0x3ecaea6c	0.39631975
10	0xbdb5ec19	-0.08882923
11	0x3e13b7f2	0.14425638
12	0x3d7daf5a	0.061934806
13	0xbd8507e9	-0.06495649
14	0x3c817990	0.015805036
15	0xbc5ff1f0	-0.013668522
16	0x3dee6a5c	0.1164138
17	0xbd25c997	-0.040475454
18	0xbdc665b5	-0.09687368
19	0x3e2c0b20	0.16801119
20	0x3e97735b	0.29580197
21	0x3ecbd88f	0.3981366
22	0xbe1729c3	-0.14762025
23	0xbdd30291	-0.10303224
24	0xbdadb69a	-0.08482094
25	0xbe066db7	-0.1312779
26	0x3db2c2e9	0.087285824
27	0xbc5cc04a	-0.01347358
28	0xbd8517c4	-0.064986736
29	0x3d7705b8	0.06030819
30	0x3de13909	0.10997207
31	0xbd6d8a4b	-0.057993215
32	0x3ba0919f	0.004900172
33	0x3db8b14d	0.090181924
34	0xbd591642	-0.052999742
35	0xbde30de3	-0.11086633
36	0xbd5eb34c	-0.05437021
37	0xbd9b3c7b	-0.07579895
38	0x3cec2eeb	0.028830966
39	0xbc17e04c	-0.009269785
40	0xbdf66c99	-0.12032432
41	0x3edd2f66	0.43200225
42	0x3ea8949d	0.32925883
43	0xbd87cc5b	-0.066307746
44	0x3d4ed2d0	0.050494015
45	0xbdb6aece	-0.0892006
46	0x3e88dfcc	0.26733243
47	0xbe26ad6b	-0.16277091
48	0x3dab2e15	0.08358399
49	0xbd51301c	-0.05107127
50	0x3b182b56	0.002321919
51	0x3ecb079c	0.39654243
52	0x3d85a8b7	0.065263204
53	0xbdc6f069	-0.09713823
54	0x3e1bb164	0.15204388
55	0xbe267969	-0.16257252
56	0xbe09ea89	-0.13468374
57	0xbdfb4dcf	-0.122707
58	0x3d2f93c9	0.04286555
59	0xbd3da4e9	-0.04629985
60	0x3da34b5e	0.079733595
61	0x3e92a7ea	0.28643733
62	0x3dbf7e08	0.093502104
63	0xbdb51f5d	-0.08843873

fc3.weight f4 [4, 64]
0	0x3edcd6dd	0.43132678
1	0x3e4b2302	0.19837573
2	0x3e6c2d13	0.2306407
3	0x3e144457	0.14479195
4	0x3e1fea0f	0.1561663
5	0x3e8470b6	0.25867242
6	0x3eed2bae	0.46322387
7	0xbeb34026	-0.3500988
8	0x3d84c479	0.06482787
9	0x3dee6c81	0.11641789
10	0xbe0ebb2f	-0.13938592
11	0x3e1c33e1	0.15254165
12	0x3d47c4c7	0.048771646
13	0x3d7ea814	0.06217201
14	0x3ee48801	0.44635013
15	0xbdc1d594	-0.09464565
16	0x3e3b9a6f	0.1832063
17	0xbe87c181	-0.2651482
18	0xbc9d0dce	-0.019171622
19	0x3e22e8d0	0.15909123
20	0x3dfa6c51	0.12227691
21	0x3e2b5f6e	0.16735622
22	0xbdcfc645	-0.10145239
23	0xbe94613e	-0.2898044
24	0xbd822a5e	-0.06355737
25	0xbeca5c7a	-0.3952368
26	0xbef9a981	-0.48762134
27	0x3ddc8047	0.107666545
28	0x3ea6fd2f	0.3261504
29	0x3eb14d9e	0.3462953
30	0xbe4e51ec	-0.20148438
31	0x3d9fdec3	0.0780616
32	0x3e201d2d	0.1563613
33	0x3dd40208	0.1035195
34	0x3e92e3ae	0.2868933
35	0x3c7de7ad	0.01549713
36	0x3e348533	0.17628936
37	0xbebbd59e	-0.36686414
38	0xbe28322a	-0.16425386
39	0x3eb8dc98	0.361058
40	0x3cd3d814	0.02585987
41	0x3e1d485e	0.15359637
42	0x3dc6a982	0.097003
43	0xbd4b2b46	-0.049601816
44	0x3e7dfcf4	0.24803525
45	0x3d47bf83	0.048766624
46	0x3e40bd58	0.18822229
47	0x3e00b6e8	0.12569773
48	0xbcd28f76	-0.025703173
49	0x3eb18137	0.34668896
50	0x3e2eec6a	0.17082372
51	0x3e08a46a	0.13343969
52	0x3e7d384b	0.24728505
53	0xbd212d1a	-0.039349653
54	0x3ded6a91	0.115925916
55	0xbe0b2996	-0.13590083
56	0xbe0e406c	-0.13891762
57	0xbeae8078	-0.3408239
58	0x3d43b902	0.04778386
59	0x3dad4000	0.08459473
60	0x3dd18a2c	0.10231432
61	0x3e365ddb	0.1780924
62	0xbd3ad70a	-0.045615233
63	0x3da4634b	0.08026751
64	0x3eb39788	0.35076547
65	0x3e3ad8d6	0.18246779
66	0x3e3df420	0.18550158
67	0x3e2ba814	0.16763335
68	0x3e11b510	0.14229226
69	0x3f031110	0.5119791
70	0x3ecc2834	0.39874423
71	0xbd9cfaee	-0.076650485
72	0x3d811ace	0.06303941
73	0x3e0ff80d	0.14059468
74	0xbe44d29d	-0.19220968
75	0x3e2a20dd	0.16614099
76	0x3d1a3832	0.03765125
77	0x3dc2bd55	0.095087685
78	0x3ea71351	0.32631925
79	0x3b9fdb28	0.0048784204
80	0x3c59664b	0.013269017
81	0x3ec1e4dd	0.3786992
82	0xbeb47aec	-0.35250032
83	0x3dc82aa9	0.09773762
84	0x3e13cbfd	0.14433284
85	0x3e618213	0.22022276
86	0xbddbf8f6	-0.10740845
87	0xbe2f4a6c	-0.17118233
88	0x3e0462b3	0.12928276
89	0xbe827162	-0.2547713
90	0x3db5bf26	0.08874349
91	0xbd1c264d	-0.038122464
92	0x3ebb1f82	0.36547476
93	0x3eacd564	0.33756554
94	0xbe2e0eb3	-0.16997795
95	0x3e43e972	0.19132021
96	0xbce7eab5	-0.02831016
97	0x3d129a00	0.035791397
98	0x3e280ef0	0.16411948
99	0xbd739924	-0.05947222
100	0x3e64e976	0.22354683
101	0xbe978531	-0.29593804
102	0xbc670a9e	-0.014101652
103	0x3eab91cc	0.33509672
104	0xbd29a049	-0.041412625
105	0x3e2b1715	0.16708024
106	0x3d69533b	0.05696414
107	0x3e308c6a	0.17241064
108	0x3f0c3a2a	0.5477625
109	0xbc28375c	-0.010267105
110	0x3e3cff94	0.1845687
111	0xbdafc99d	-0.085833766
112	0x3d86520a	0.065586165
113	0x3e87d44a	0.2652915
114	0x3e43ce7a	0.19121733
115	0x3dbabc8a	0.09117992
116	0x3e6c3acd	0.23069306
117	0xbaf6f1b6	-0.0018840346
118	0x3df38ef1	0.11892498
119	0xbddd3d48	-0.10802704
120	0xbe0ee735	-0.13955386
121	0x3ceb35c2	0.028712157
122	0x3da3a88a	0.07991131
123	0x3dabf496	0.083962604
124	0xbe0d77de	-0.13815257
125	0x3d2b8be0	0.041881442
126	0x3dbd2628	0.09235793
127	0x3e825d1b	0.2546166
128	0x3e416392	0.1888564
129	0x3eb4c0c1	0.3530331
130	0x3e45a766	0.19302139
131	0x3ec3cb8b	0.38241228
132	0x3d82b6ad	0.06382499
133	0x3f0dc4e7	0.55378574
134	0x3f062be8	0.52410746
135	0xbe04c5f4	-0.12966138
136	0x3d2e486c	0.042549536
137	0x3deef701	0.11668206
138	0xbe3f1eca	-0.18664089
139	0x3eb303f4	0.34963953
140	0x3e1a3c19	0.15061988
141	0xbeece94a	-0.46271735
142	0x3eb5ea5d	0.35530367
143	0x3e0ede61	0.13952018
144	0x3e32eca1	0.1747308
145	0xbe2caba8	-0.16862357
146	0x3e544662	0.20729974
147	0x3dbfe511	0.09369863
148	0x3dd0772e	0.10178982
149	0x3e5d03d8	0.21583498
150	0xbdae9aa7	-0.08525591
151	0x3dcfa20f	0.10138332
152	0x3e8c2f67	0.27379915
153	0x368f9a0c	4.2796655e-06
154	0xbdc8f191	-0.098117
155	0xbe8bc413	-0.2729803
156	0x3e61a1ea	0.22034422
157	0x3edb583b	0.42840752
158	0xbda96e7e	-0.08273028
159	0xbc05ec04	-0.008173946
160	0x3cd2e632	0.025744531
161	0xbc9a0724	-0.018802233
162	0x3f0cfae0	0.55070305
163	0x3dce4f8f	0.10073768
164	0x3e967542	0.29386336
165	0xbe7e7517	-0.24849354
166	0xbe4f22f2	-0.20228174
167	0x3e18dba5	0.14927538
168	0xbea2d2e8	-0.31801534
169	0x3e261ccb	0.16221921
170	0x3e2ccd1e	0.16875121
171	0xbe90b002	-0.28259283
172	0x3c912f32	0.0177227
173	0xbdc444bc	-0.095834225
174	0x3e24f4ab	0.16108958
175	0x3e43c0e6	0.19116554
176	0x3e1d0929	0.15335526
177	0x3e8e07d0	0.27740335
178	0x3e38c18c	0.18042582
179	0x3e463f4e	0.19360086
180	0x3d75f93d	0.060052145
181	0x3e55fe90	0.20897889
182	0x3e10b0f8	0.14130008
183	0xbc081a79	-0.008307093
184	0xbf11de13	-0.56979483
185	0xbf1176ed	-0.5682209
186	0x3e3f6a27	0.18692838
187	0x3ca25429	0.019815521
188	0xbecc0200	-0.39845276
189	0x3deaf650	0.11472762
190	0xbf2a5f4b	-0.66551656
191	0x3e36fd4e	0.17870066
192	0x3e3a71d1	0.1820748
193	0x3efbd0d0	0.4918275
194	0x3e916149	0.28394535
195	0x3dfac7e8	0.1224516
196	0x3d53ffc4	0.05175759
197	0xbe9c10cb	-0.30481562
198	0x3ea898ea	0.32929164
199	0xbd89eb92	-0.067343846
200	0x3dfeda94	0.12444034
201	0x3e477c46	0.19481
202	0xbda97256	-0.08273761
203	0xbf0ad446	-0.54230154
204	0x3e990dd4	0.29893363
205	0x3d82f1be	0.06393765
206	0x3eaa2b52	0.33236176
207	0xbd3ff36e	-0.046863012
208	0x3e567ca5	0.20945986
209	0x3dda57c1	0.10661269
210	0xbe2d785b	-0.16940443
211	0x3dd0a4b7	0.10187667
212	0x3d4778ce	0.048699193
213	0x3e658b08	0.22416317
214	0xbe8b0682	-0.27153403
215	0xbd3ab269	-0.0455803
216	0x3df9a809	0.12190253
217	0xbee0f708	-0.4393847
218	0xbd90f11a	-0.070772365
219	0x3eee4831	0.46539453
220	0x3f34a1f2	0.7055961
221	0x3d5f27cb	0.05448131
222	0xbeae2a11	-0.3401647
223	0x3e13554d	0.14388008
224	0xbe2abf1e	-0.16674468
225	0x3e8a9241	0.27064708
226	0x3ebb329d	0.36562052
227	0xbb78bc29	-0.003795395
228	0x3d11e5ec	0.03561966
229	0xbe42b384	-0.19013792
230	0x3e77fd16	0.24217638
231	0x3ed8e7c8	0.42364335
232	0xbe8732d5	-0.2640597
233	0x3e34cd13	0.17656355
234	0x3e0fb952	0.14035538
235	0xbe8464c9	-0.25858143
236	0x3f1a5473	0.6028511
237	0xbe44504a	-0.19171253
238	0x3e0ae8b3	0.1356533
239	0xbc0a14df	-0.008427828
240	0x3ca3125c	0.019906215
241	0x3e9354e3	0.287757
242	0x3e94665a	0.28984338
243	0x3e28032e	0.16407463
244	0x3d7e9c7b	0.06216095
245	0xbd688852	-0.05677063
246	0x3dc3367b	0.09531876
247	0x3dcb9fe1	0.09942604
248	0xbe76fa5c	-0.24118942
249	0xbe4dbaed	-0.20090838
250	0xbea64fee	-0.32482857
251	0xbd776eb7	-0.06040832
252	0xbe0949e8	-0.13407099
253	0x3de96563	0.11396291
254	0xbe041059	-0.12896861
255	0xbb4ec21d	-0.0031548806

fc3.bias f4 [4]
0	0x3e89314c	0.26795423
1	0x3e816058	0.25268817
2	0x3e106915	0.14102586
3	0x3e3b4eba	0.1829175
