data/2019-01-24-checkpoint_dqn.pth (torch_old, 28417 bytes, 6 tensors)

fc1.weight f4 [64, 37]
000000 9d c1 5f 3d ba d2 8d 3d 47 bd aa be 48 9d 87 be
       0.054628003 0.069249585 -0.33347532 -0.26487184
000010 03 85 11 be 3f c6 0e 3e a7 b9 9b be 92 31 68 3d
       -0.14210896 0.13942812 -0.3041508 0.0566879
000020 9d 86 b1 bd 36 d2 7a be c8 43 8d 3b 76 1b 7c bd
       -0.086682536 -0.24494252 0.0043110587 -0.061549626
000030 79 e2 7d be c6 e1 11 be 8b de 7b be 1b 51 12 3e
       -0.24793424 -0.14246282 -0.24596612 0.14288752
000040 76 6d ef bd 8f 09 89 bd fe 9f 4d be 78 d2 15 bd
       -0.116908 -0.06691276 -0.20080563 -0.03657767
000050 ba 86 52 3d eb dc 11 3e e6 09 14 3e 3d b8 2d be
       0.051398017 0.1424443 0.14456901 -0.16964813
000060 bf 63 21 3d 19 17 c7 bc 34 1c 22 3e 97 d7 0a be
       0.039401766 -0.024303006 0.15831071 -0.13558803
000070 d0 57 d1 be c8 69 50 bd 29 79 29 bd 4a 6a f1 3d
       -0.40887308 -0.05088213 -0.041375313 0.11787851
000080 33 08 99 bd 24 59 47 be c6 fa 75 bd 65 9d 20 bd
       -0.07472267 -0.19467598 -0.06005361 -0.039212603
000090 8c 33 d5 bc 05 2b 11 3e f5 f9 19 3e fa f4 e2 3c
       -0.026025556 0.14176567 0.15036757 0.027704705
0000a0 8a 34 a0 3d fb d1 22 be 95 ac 7e 3d 03 87 51 be
       0.07822521 -0.15900414 0.062176306 -0.20461659
0000b0 c6 3f 36 3c a8 33 0e 3d b1 4d 6a be f1 f8 9a 3c
       0.011123603 0.034717232 -0.228812 0.018917533
0000c0 70 97 53 bd e0 44 47 3e b9 82 25 3e ab 43 80 3e
       -0.051658094 0.19459867 0.16163148 0.25051627
0000d0 37 d5 eb 3d 4c a5 3a bd 86 4c 08 3a f8 24 49 3e
       0.11515277 -0.045567796 0.0005199391 0.19643009
0000e0 ab 29 81 3c 65 51 71 3d 43 33 1c be 81 57 0f be
       0.01576694 0.058915514 -0.1525393 -0.13998224
0000f0 4e a2 58 bd 32 bd 81 be 33 9d 02 3d 6c 77 0c 3d
       -0.05288916 -0.25339657 0.031888198 0.034293577
000100 be 57 16 ba e2 bb 01 be 75 89 2d be 70 2e 7b 3d
       -0.00057351205 -0.12669328 -0.16946967 0.061323583
000110 c6 f8 1e 3e 9d d7 bc 3d 03 d4 0f 3e a3 74 46 3e
       0.15524587 0.092208125 0.1404572 0.19380431
000120 6e b0 93 3d 6b 2a 3f 3d 20 6b 9c 3d 6c ed f3 3d
       0.07211386 0.046671312 0.0763762 0.11910519
000130 21 ad df 3d 55 3d 03 3e e8 8a 55 3e 8d 6f 2a bf
       0.109216936 0.12816365 0.2085377 -0.66576463
000140 c4 f2 10 3e 98 cf 83 3e 80 17 2c 3e 86 36 69 be
       0.14155108 0.2574432 0.1680584 -0.22774705
000150 76 04 ae 3c 42 f5 5f 3d f5 70 d0 bd 2a 80 8b 3d
       0.021242362 0.054677255 -0.10177795 0.06811555
000160 44 ec 73 bd ef 8e 36 be 53 42 09 3e 2d 96 04 3e
       -0.059551492 -0.17827962 0.13404207 0.12947913
000170 e2 df 45 3e b2 94 f7 3d 96 1a 4d be 97 e8 b6 bd
       0.19323686 0.12088908 -0.20029673 -0.08931082
000180 72 cd 7e bb 4d 2e 2c 3e 09 5a 26 3e c5 3b ad be
       -0.003887978 0.16814537 0.16245283 -0.33834663
000190 ae c4 8e 3e f0 27 14 3e 75 01 41 3e 05 c7 07 be
       0.2788443 0.1446836 0.18848212 -0.13259514
0001a0 10 a6 3b be 27 2a 26 bd 46 dc 6d bb 63 94 6a bd
       -0.18325067 -0.040567543 -0.0036294623 -0.05727042
0001b0 39 02 a4 bd 16 fa c5 3b 45 e5 ce 3a 08 26 30 3e
       -0.080082364 0.0060417755 0.001578488 0.17202008
0001c0 a1 2a 38 be 8f fc ee 3d 80 c6 ee bd d8 8b d8 be
       -0.17985012 0.116692655 -0.116589546 -0.42294192
0001d0 bc 30 f4 bd 20 ea 9b be ca 9f dc 3d df eb dd 3d
       -0.11923358 -0.3045206 0.10772665 0.108360045
0001e0 d3 93 92 be 13 92 3f bd 70 27 49 39 42 51 2a 3d
       -0.28628406 -0.046770167 0.00019183545 0.0415814
0001f0 2f a4 15 be ca e2 3a bc e2 ce 85 be 10 d3 92 be
       -0.14613412 -0.01140661 -0.26134402 -0.28676653
000200 ee c9 fe 3d d3 d9 37 be 35 f1 e0 be 55 64 39 3e
       0.12440859 -0.17954187 -0.43934026 0.1810468
000210 06 ad 22 be 3b a1 b0 bd f7 62 12 be c5 b7 00 bf
       -0.15886316 -0.08624502 -0.14295565 -0.5028041
000220 5d 70 d6 bd db cf 24 3e 21 db 0a 3e 28 24 2e be
       -0.1047065 0.16094916 0.13560154 -0.1700598
000230 ce d5 b9 3c 1f f2 3f 3d 14 40 3b be c1 92 7b 3e
       0.022684958 0.046861764 -0.18286163 0.24567701
000240 e3 ab 8a be 23 ec d4 be 25 62 da 3d 0e da a3 3c
       -0.27084264 -0.41586408 0.10663251 0.020001438
000250 e4 6e 24 3c d5 96 46 be 97 f6 5c be 6d a5 10 be
       0.010036204 -0.19393475 -0.21578442 -0.14125605
000260 8a ec a7 3d 77 df e3 3d b9 5e e7 3d bc e6 0c bd
       0.08199413 0.11126607 0.11297364 -0.034399733
000270 4c 21 5a be a7 30 97 bd 43 5c 31 3e f4 09 1c be
       -0.21301764 -0.073823266 0.17320351 -0.15238172
000280 f1 c2 1a be 8e 7c 8f be 3f 22 80 bf ba da a7 bd
       -0.15113427 -0.28024715 -1.0010451 -0.08196016
000290 13 4f 7e bc e0 3d 41 be ff 08 c7 3d a4 14 2c 3e
       -0.015521782 -0.1887126 0.09718513 0.16804749
0002a0 fd 42 98 3d 65 90 e0 bd 64 0d 39 bd a7 e1 d5 bd
       0.07434652 -0.10965041 -0.045178786 -0.104434304
0002b0 b7 f9 e4 bc 36 47 83 bd 34 23 8d 3d bc ed 3b 3d
       -0.027951105 -0.06410067 0.0689148 0.045881018
0002c0 9d 9d 5e 3d d2 41 28 bd 7d c5 e4 3d 03 b9 a7 bd
       0.05434953 -0.041078396 0.111704804 -0.08189585
0002d0 12 ad 01 bd d0 71 a5 3d bf d5 80 3c f2 ba b2 3c
       -0.031659193 0.08078349 0.015726922 0.021817658
0002e0 a7 b6 94 3b b9 82 ad bd a5 3c ac bd 49 14 86 bb
       0.0045383754 -0.08472199 -0.084100045 -0.0040917736
0002f0 62 80 6f 3d 47 37 e6 3d b9 1b c6 3d 4e 8c c3 3e
       0.058472045 0.11241012 0.096732564 0.3819298
000300 8d 18 57 be 63 58 4f be f9 05 ff be 92 78 32 be
       -0.21005459 -0.2024856 -0.49809244 -0.17428806
000310 3a ab a0 3c 0f 3c 45 bd 54 5b 0a be 16 a0 96 3d
       0.019612897 -0.04815298 -0.13511401 0.07354753
000320 d7 3f 6d bd cc b9 aa 3d 82 74 74 bd 7e f7 db bd
       -0.05792221 0.08336219 -0.059681423 -0.10740565
000330 a3 14 6b bd 42 d0 91 3b 4a 64 05 3c df 93 2a 3e
       -0.057392728 0.004449875 0.008141587 0.16657971
000340 ae 40 f4 3c 16 ed 37 3e ea d6 22 be 06 81 e4 bb
       0.029815998 0.17961535 -0.15902296 -0.0069733886
000350 d4 16 1d 3e b2 b1 9d bd ea 97 cc 3d 88 96 a8 bc
       0.1534074 -0.07699908 0.09989913 -0.020579591
000360 a7 9f 18 3e 6d 12 76 be bd 53 30 3d 02 b4 80 be
       0.14904653 -0.24030466 0.04304861 -0.25137335
000370 3f f3 09 be b8 a9 3d 3d 01 30 49 be 3b 36 a9 3b
       -0.13471697 0.046304435 -0.19647218 0.0051639355
000380 79 e5 ac bc c0 d7 f2 bc a3 5b d8 bd e1 db 99 3c
       -0.021105515 -0.029643893 -0.10564353 0.018781604
000390 99 fd 8d be 60 5c e0 bd 7a 47 a8 3d 15 5e a2 3e
       -0.27732542 -0.10955119 0.08216758 0.31712404
0003a0 03 68 81 bd b9 7c 57 3d 8c 5b 3e 3c 25 b2 d9 3d
       -0.06318667 0.05260918 0.011618506 0.106296815
0003b0 ae 50 7c 3e 20 30 1b be 3f 39 8d bd 1e 49 74 bd
       0.24640152 -0.15155077 -0.068956845 -0.059640042
0003c0 d3 3f 0a 3d 07 0e a9 3d a3 a3 27 be 33 eb 21 be
       0.033752274 0.08254629 -0.16371016 -0.15812378
0003d0 53 40 40 bc b7 3c eb 3d b5 3a cb 3e 77 87 85 be
       -0.011734086 0.1148619 0.39693227 -0.26079914
0003e0 c4 55 f5 bd d6 52 de 3d b5 80 d5 bd 1d 28 3f 3e
       -0.11979249 0.108556435 -0.104249395 0.18667646
0003f0 8f f4 b1 3c 9c cc 2f be a8 f6 a2 bd 23 3c 48 3d
       0.02172306 -0.17167896 -0.07957202 0.048885476

fc1.bias f4 [64]
000000 29 71 a7 3d f4 db 7d 3c 59 8b 1c be d6 34 97 bd
       0.081758805 0.015494335 -0.15287532 -0.073831245
000010 70 50 43 3e 7d 4f 92 bd 52 b3 2f be b9 b2 a4 3d
       0.19073653 -0.071440674 -0.17158249 0.08041901
000020 b0 bd de 3d 58 c2 55 be c1 cb 09 3e 15 d1 33 3e
       0.10876024 -0.20874918 0.13456632 0.17560227
000030 fb cd 46 3e c9 04 32 3e 90 9b a2 bd 3a 16 21 bd
       0.19414513 0.17384638 -0.079398274 -0.039327838
000040 de 13 51 3b 22 cf 66 3d c1 09 f5 3c 4e 73 47 be
       0.003190271 0.05634988 0.029911878 -0.19477579
000050 37 6d 8d bd e2 86 10 3d b8 49 f0 3b fe bc 92 bd
       -0.06905597 0.035284884 0.0073330067 -0.07164954
000060 c5 0d 21 be c8 94 7a 3d 99 1b 58 bd f8 0f 43 be
       -0.15727909 0.061177045 -0.052760694 -0.1904906
000070 c3 c4 67 3d cc 72 0c 3e 52 7e dc bd 38 36 28 be
       0.05658413 0.13715667 -0.10766281 -0.16426933
000080 13 b5 44 3e 87 17 72 3c 72 b3 c9 bd 0a 2a cd 3c
       0.192097 0.014776117 -0.098486796 0.02504446
000090 d6 59 a2 bd d1 cd f0 bb ea 68 27 bc d4 12 a9 bd
       -0.07927291 -0.007348754 -0.010217885 -0.08255544
0000a0 05 87 49 bd 3e 2c 0e bd 88 22 3b be d3 f2 d6 3d
       -0.04920103 -0.03471016 -0.18274891 0.10495534
0000b0 23 9e 3a 3c 29 0f e7 bd cc b8 df 3d be 21 4a be
       0.011390242 -0.112821884 0.10923919 -0.19739434
0000c0 f5 1f 00 be bb 68 8f 3d a4 da 04 be ff 01 03 3e
       -0.1251219 0.070023976 -0.1297403 0.1279373
0000d0 78 e7 50 bd 14 84 48 bd bb 5c 44 be 97 07 38 3d
       -0.051001996 -0.048954085 -0.19175999 0.044929113
0000e0 15 49 c2 3d 51 ef da bd 34 10 97 bd 2a 01 de bd
       0.094865955 -0.10690177 -0.073761374 -0.10840066
0000f0 e8 75 2e bb 43 8e 1e 3e 9c a9 ee 3d 97 ef 4a 3d
       -0.002662057 0.15483956 0.11653444 0.049544897

fc2.weight f4 [64, 64]
000000 02 44 72 3e 39 b0 f9 3c 1e fb 38 3e 2b 0f 05 3e
       0.23658755 0.030479537 0.18064544 0.12994067
000010 aa 8f 5e 3e bb 35 c5 bd f1 93 ac bd 85 50 81 bd
       0.21734491 -0.09629389 -0.08426655 -0.06314186
000020 76 4f 4d bd 6d 37 e9 3d 59 dd 07 3d 82 0c 65 be
       -0.050124608 0.11387525 0.033170078 -0.22368053
000030 89 4d 88 bd 73 14 7e 3d 57 d5 e6 bd ca 35 8b 3c
       -0.06655414 0.06203122 -0.1127116 0.016993422
000040 25 0e eb 3b ba 85 aa be 32 65 8e bd da 30 09 3d
       0.007173317 -0.3330515 -0.06952895 0.033493854
000050 20 23 17 be 3f b9 8d be eb 58 8a 3e 2a ac b9 bd
       -0.14759493 -0.27680394 0.27020964 -0.09066041
000060 1c 39 6e be 9f c3 99 3a 1d fc a4 3e 81 5b 8e 3d
       -0.23263973 0.0011731273 0.32223597 0.06951047
000070 b6 a8 d0 bb d1 ac 29 3d 21 42 e9 3d 0e f5 49 bd
       -0.006367768 0.041424576 0.11389566 -0.049305968
000080 b4 4d 03 3c d0 72 a5 3e eb e9 a4 bd ff d3 42 3d
       0.008014131 0.32314157 -0.08052429 0.047565456
000090 fe 0a 02 be 86 e6 a8 3e 83 e0 be 3e 68 2e 7f bc
       -0.12699506 0.32988375 0.37280664 -0.015575029
0000a0 34 58 d3 be 8b 40 2c bc 51 8d b0 3e 89 ec 9c bc
       -0.4127823 -0.010513435 0.34482816 -0.019155758
0000b0 bb 7a b4 3d 76 5e 8c be 4a 45 22 be 32 31 2e 3e
       0.088124715 -0.27415818 -0.15846744 0.17010954
0000c0 4d 3f 85 bd 00 af 53 3e aa 3d 56 3d 5d 76 a6 bd
       -0.06506214 0.20672226 0.0523049 -0.08128045
0000d0 70 3d c9 bc 18 ca e3 3e 49 0b ab bd 12 cd c6 3d
       -0.024565428 0.44490123 -0.08351762 0.09707083
0000e0 95 88 ca bd 65 d2 2d bd d0 00 a6 be c0 24 7f bc
       -0.09889332 -0.042436976 -0.32422495 -0.015572727
0000f0 1e ac 59 bc 68 ce a0 3d 3d bf 79 be 68 5e 57 be
       -0.013285665 0.07851869 -0.24389358 -0.21032107
000100 11 ff 31 3e b1 d0 86 3d 6e d3 9b be ce d1 3b 3e
       0.17382456 0.065827735 -0.30434746 0.18341753
000110 4a a4 09 bd 94 30 7e 3d b9 c5 63 be bc 4d 30 be
       -0.033603944 0.062058046 -0.22243394 -0.17217153
000120 dd e2 1d be ca b2 fb bd f8 bf e4 bd 00 99 aa 3e
       -0.15418573 -0.12289961 -0.11169428 0.33319855
000130 61 90 a1 bd 9d d2 83 3d dd 5e 4f bd 6c 34 09 3e
       -0.07888866 0.06436656 -0.050627578 0.13398904
000140 d2 c3 01 be fa 62 24 be 9e b2 1f 3d 11 11 0d 3b
       -0.12672356 -0.16053382 0.038988702 0.0021525065
000150 7d a4 ef 3d bc 58 0b be e8 eb 2d 3e 9e 11 e2 bd
       0.117012955 -0.13608068 0.16984522 -0.110385165
000160 c6 5f 46 be c5 b8 46 3e 57 d1 89 be 27 85 09 be
       -0.19372472 0.19406421 -0.26917526 -0.134297
000170 c8 9f 41 3d f6 db 03 be 17 b8 0e bd 4c 45 5c be
       0.04727152 -0.12876877 -0.03484353 -0.2151081
000180 e9 01 13 be 3a fd 77 bd 28 97 8c bd 03 91 06 3e
       -0.14356197 -0.06054423 -0.06864768 0.13141255
000190 a4 ef 18 be 8c 10 53 3e b9 b9 bc bd 7c 5d e3 3a
       -0.14935166 0.20611781 -0.09215111 0.0017346586
0001a0 18 11 c3 be 3c 86 09 3e b5 c0 db 3d e8 70 79 bd
       -0.3809898 0.13430113 0.10730115 -0.06089869
0001b0 96 8b cb bd 30 4e 79 be f9 8f 23 be d5 ed 33 bd
       -0.09938733 -0.24346232 -0.1597289 -0.043927986
0001c0 9c 15 b2 bd ac 91 c9 3d fe 25 c0 bd ad cb 84 3d
       -0.08695528 0.09842238 -0.093822464 0.064841606
0001d0 8d f0 c6 bd f1 5a f2 3e 09 f9 76 bd 44 95 05 3d
       -0.0971385 0.47335008 -0.060296092 0.032613054
0001e0 00 1e f7 bd 34 cb 75 bd 9e e4 95 3e 89 98 0b bd
       -0.12066269 -0.060008243 0.29275984 -0.034081016
0001f0 da f3 6d bd 9c 21 51 3d 53 98 a7 3d b7 63 67 be
       -0.058093883 0.051057443 0.081833504 -0.22596632
000200 05 6a 86 bc 1d c6 b5 bd 38 ca 04 3e a5 a7 f8 bd
       -0.016407976 -0.08875678 0.12967765 -0.12141351
000210 80 5f d2 bd ab c9 f4 3c 85 bf ab bd b9 66 af bc
       -0.102721214 0.029881319 -0.08386139 -0.021411287
000220 4b a8 bd bd 8f 06 4b 3a c1 8a 08 3e 8e 43 29 be
       -0.09260615 0.0007744813 0.1333418 -0.16529676
000230 32 e7 fd 3d a7 5a bf 3d ca c7 d7 be ea d3 d3 3d
       0.12397613 0.093434624 -0.42144614 0.10343154
000240 d3 f6 2b be ff fb b9 bc 43 c1 16 3e 53 98 12 bd
       -0.16793375 -0.022703169 0.14722161 -0.0357898
000250 bc 26 3b be dc 8a b1 3c 16 14 38 be e7 ee 47 be
       -0.18276495 0.021672659 -0.17976412 -0.19524728
000260 e5 1e c4 3c c5 be b2 3d 57 0c ab 3d 0d bc 1c be
       0.023940513 0.08727793 0.08351963 -0.1530611
000270 41 13 21 3e 27 83 48 3d 8b 91 87 be 04 2b 35 be
       0.15730001 0.0489532 -0.26478228 -0.1769219
000280 61 df a7 be 25 98 1d be b6 ca 64 bd 77 2c be 3d
       -0.32787612 -0.1539007 -0.055857383 0.09285825
000290 b3 dc b5 bc 96 19 d3 3d d1 93 49 3e 38 cd 80 be
       -0.022199964 0.103076145 0.19685294 -0.2515657
0002a0 ae c5 b2 3e 83 7a c1 bc e0 79 71 3c 19 8d 3d 3c
       0.34916443 -0.023617988 0.01473853 0.011569285
0002b0 2d ab 03 be 0c d5 36 3d 0f bb b8 3b b0 40 ab bd
       -0.12858267 0.04463677 0.0056375335 -0.083619475
0002c0 a1 a5 47 be 2d e5 48 be 81 de 14 be 44 a3 23 bd
       -0.19496776 -0.19618674 -0.14538004 -0.039950624
0002d0 a5 1b 03 be a1 30 73 3e c8 83 a1 bd 92 d5 29 be
       -0.12803514 0.23749019 -0.078864634 -0.16585377
0002e0 1d bd 73 3e f2 5f 29 be 3b a1 ac bd 5d 36 1e 3e
       0.2380261 -0.16540506 -0.0842919 0.15450425
0002f0 48 a1 d9 bc ce c3 07 be f4 0c 23 3e fa a9 7a 3d
       -0.026566163 -0.13258287 0.1592291 0.06119726
000300 50 e2 ad bd 66 1d 0e 3d 54 52 33 3d 13 25 ed bd
       -0.08490431 0.034696005 0.043779686 -0.11579337
000310 0b a6 d7 bd 38 33 ff bd 9a 2d 1d be 15 0b 2b bd
       -0.10529717 -0.12460941 -0.15349427 -0.041758616
000320 66 da 5c bd 23 23 9d bd 2b fc 3f be e8 05 2f bd
       -0.05391922 -0.076727174 -0.18748538 -0.042730242
000330 b7 48 ab 3b 62 f0 5f bd 1e e8 a1 bc c9 a7 c9 bd
       0.005227174 -0.054672606 -0.019764002 -0.098464556
000340 a4 8c 24 3d fe f9 89 3b b8 23 c0 bd 43 a6 d6 bd
       0.040173188 0.0042107096 -0.09381813 -0.10480931
000350 cf 37 82 3d 85 48 79 3d 5c 05 f1 3c b6 66 3f 3f
       0.06358301 0.060860176 0.0294215 0.747661
000360 f1 ce 05 3f 13 95 7f bc 86 74 8c 3d c2 47 90 bc
       0.5226889 -0.015599507 0.068581626 -0.017612342
000370 17 75 d5 3d 64 0a af bd c9 7e 98 bd 5f c8 c4 3d
       0.10422724 -0.08546904 -0.07446057 0.0960853
000380 3f 14 9e bd 95 78 17 3c da 2b f6 3c 7e 7b 08 3e
       -0.077187054 0.009245058 0.030050207 0.13328359
000390 e5 2a 6b 3c 12 c0 a5 be 5e cb d1 3d d6 e1 3e 3d
       0.014353489 -0.323731 0.10243867 0.046602093
0003a0 80 e1 dd bd 2d 96 17 be 98 e7 36 bb bc 6d 8c bd
       -0.10834026 -0.14803381 -0.0027909037 -0.06856868
0003b0 7c 95 2a bd 43 10 53 bc 3f 6f 56 3d e7 f7 c2 3d
       -0.041646466 -0.012882295 0.052352186 0.0951994
0003c0 a9 0c 0a 3d d5 51 fe 3d 7e 1c f2 bd 5c 8a 9e 3c
       0.03370348 0.12417952 -0.11821841 0.019353084
0003d0 bc 8c 61 3d a3 c7 12 bf 51 58 4c be 4c de 10 3d
       0.055065855 -0.5733587 -0.19955565 0.03536825
0003e0 14 fc 36 3e 77 79 4e be d2 d9 7e bd ab d0 4f be
       0.17869598 -0.20163523 -0.06221945 -0.20294444
0003f0 2b 7f bd bc bc 16 57 3d 4d 94 e1 3c 88 65 8c 3d
       -0.023131927 0.052511916 0.027536536 0.06855303

fc2.bias f4 [64]
000000 df 13 60 bd 34 8f 34 3d 87 d2 7c 3d a1 22 0c 3d
       -0.05470645 0.04408188 0.061724212 0.034212712
000010 68 74 84 3e 81 18 1b be 74 70 9c bd 44 26 8c 3d
       0.2587006 -0.15146066 -0.07638636 0.06843236
000020 eb 8d 7e 3e 12 20 d1 3e 91 ec 24 be 0a 8b 43 3e
       0.24858825 0.4084478 -0.16105868 0.19096008
000030 fe d1 16 3e 63 50 bc bd 9e 15 e3 bd 8b 33 04 3d
       0.14728543 -0.0919502 -0.110881075 0.032275718
000040 a6 9d 04 3e fe b1 87 bd 08 04 d0 bd 96 e6 13 3e
       0.12950763 -0.06625746 -0.10157019 0.1444343
000050 42 9c 83 3e 14 65 f9 3e 93 b7 32 be 60 0b e7 bd
       0.25705153 0.4870993 -0.1745284 -0.112814665
000060 8e e9 af bd f4 1f 16 be 38 ff 77 3d ca 1d 11 bc
       -0.08589469 -0.14660627 0.06054613 -0.0088572
000070 4b fb fc bd 11 9c 80 3d 66 a8 cc 3d da c1 da 3d
       -0.12352618 0.06279767 0.09993057 0.106815055
000080 8f 5e 0d 3c c7 5b 2d 3d af 38 84 bc c1 39 c9 bd
       0.008628502 0.042323854 -0.01614031 -0.09825469
000090 15 53 a5 bd b3 a8 e5 bd 18 ae c3 3d f4 bc 1e 3d
       -0.08072487 -0.112138174 0.0955469 0.03875442
0000a0 ff d2 31 be 4e 59 e6 3e 3b 47 b1 3e ba 2f 92 bd
       -0.17365645 0.4499001 0.34624657 -0.07138009
0000b0 76 60 a4 3d 6b 8c d5 bd cb 66 8d 3e e2 50 23 be
       0.08026211 -0.10427173 0.27617487 -0.15948823
0000c0 e0 8d a0 3c 87 d2 b5 bd a9 d0 0c 3d 06 3c cc 3e
       0.019598901 -0.088780455 0.03437868 0.39889544
0000d0 49 56 0f 3d dc d0 71 be 9c 19 bc 3d c3 5c e0 bd
       0.034994397 -0.2361483 0.09184572 -0.10955193
0000e0 64 ec 0f be 89 44 05 be 70 5c 6c 3d bd 79 c6 3c
       -0.1405502 -0.13014425 0.057705343 0.024227971
0000f0 39 95 88 bd cc 9e 8d 3e 40 d4 32 3d 65 bb 1e be
       -0.06669087 0.27660215 0.04365945 -0.15501173

fc3.weight f4 [4, 64]
000000 31 b1 85 3e 98 5f 2b 3e 2a 02 e0 3d d8 e1 3c 3d
       0.2611175 0.16735685 0.10937913 0.04611382
000010 c3 97 2d 3e 5d 87 3b 3e 2c 91 ed 3e cd 59 0f be
       0.16952424 0.18313356 0.4639982 -0.139991
000020 f1 fd f9 3d 72 1d ea 3d aa 8c 42 be 81 44 29 3e
       0.122066386 0.114313975 -0.18998972 0.16530038
000030 95 e5 db 3e 98 e0 0e 3e 9f 1b 08 bd 9c 07 41 bd
       0.42948595 0.13952863 -0.033229467 -0.047126397
000040 2f 4c 35 3e e3 3e 5d be d6 72 a0 bd 75 4f 1d 3e
       0.17704843 -0.2160602 -0.07834403 0.15362342
000050 89 3e c0 3d f9 61 09 3e 69 8e 7e 3d 59 42 58 be
       0.09386928 0.1341628 0.06214753 -0.2111906
000060 7f 42 39 3e 29 af 68 be 68 03 e9 be 32 f9 8e 3c
       0.18091772 -0.22723068 -0.4551041 0.01745281
000070 07 65 0c 3d 17 38 1e 3f 1e 90 62 be 86 45 05 3e
       0.034276035 0.61804336 -0.22125289 0.13014802
000080 0b dc 00 3f 85 e7 0f 3e e1 98 f2 3d 17 c1 66 3c
       0.5033576 0.14053161 0.118455656 0.014084122
000090 da 0f 51 3e 98 e6 a9 be c0 35 31 3e 80 b1 b4 3e
       0.20416203 -0.33183742 0.1730566 0.35291672
0000a0 75 72 8a 3e a7 82 18 3e cf 46 fe 3d 52 d1 00 3e
       0.2704045 0.1489359 0.124158494 0.1257985
0000b0 19 91 4b 3e 69 85 fc 3d f6 39 3f 3e 81 e0 4f 3e
       0.19879569 0.123301335 0.18674454 0.20300485
0000c0 31 15 5f bd aa 26 ab 3d ac 42 2f 3e c7 92 19 3e
       -0.05446357 0.08356984 0.17115277 0.14997397
0000d0 1c e9 a2 3e e2 72 2e be 9d f4 e3 3d d7 24 b6 bd
       0.31818473 -0.17036012 0.11130641 -0.088937454
0000e0 59 42 fc be 29 4e e0 bd 0b c5 22 3d e8 8f 43 3e
       -0.4926937 -0.10952408 0.039738696 0.19097865
0000f0 62 d7 25 be cc 23 28 3e 00 d4 82 bd bc 21 31 3e
       -0.16195443 0.16419905 -0.06388092 0.17298025
000100 38 b1 70 3e 50 b0 3a 3e a7 0a 94 3e cc 53 30 3e
       0.23505104 0.1823132 0.28914377 0.17219466
000110 3e 26 26 3e 72 82 a5 3e e6 d2 ac 3e 42 e0 1d 3d
       0.16225526 0.32326084 0.33754653 0.038543947
000120 ba 22 e4 3d ff 0b 03 3e c2 ae 22 be 7d 93 b4 3d
       0.11139436 0.12797545 -0.15886977 0.08817194
000130 a9 84 a1 3e 3b 5d a9 3e 60 de a5 bc 2a ee 4b 3d
       0.31546524 0.33078942 -0.020247638 0.049787678
000140 25 7a 3e 3e d4 78 f4 3d b6 3c 88 be ef 9e 1b 3e
       0.18601282 0.11937109 -0.2660882 0.15197347
000150 a5 c4 cc 3d 67 b8 5d 3e 30 00 87 bd 0e 45 b4 bd
       0.099984445 0.21652375 -0.06591833 -0.08802234
000160 68 1c 3c 3e 1b 0f f1 bd df c6 30 3e ad b5 dd be
       0.18370211 -0.11770459 0.17263363 -0.4330267
000170 f2 48 95 3c a6 29 d7 3e 2f 8f 10 bc 47 28 3d 3e
       0.01822326 0.42023963 -0.0088232 0.18472396
000180 0d 5f 9b 3e 3b 1e 56 3d 09 f2 3c 3e 24 99 73 bd
       0.30345955 0.052274924 0.18451704 -0.05947222
000190 f2 f1 53 3e bd 61 93 be 32 24 0c 3e 57 51 84 3e
       0.20697764 -0.28785506 0.13685682 0.25843307
0001a0 8c 89 41 be ca 39 12 3e 2c 84 60 3d e1 ca 98 3e
       -0.18900126 0.14279857 0.05481355 0.29842284
0001b0 16 09 9c 3e 82 6a bd bd 6e 9c 22 3e 31 18 1a 3f
       0.30475682 -0.092488304 0.15879986 0.60193163
0001c0 54 19 28 3e 4a 7e a3 3d 6a 29 55 3e 49 e8 04 3d
       0.16415912 0.07983072 0.2081658 0.032448087
0001d0 a3 ea 86 3e 75 53 d0 ba 43 e0 17 3e 82 fa 9a 3d
       0.2635089 -0.0015894013 0.14831643 0.07567312
0001e0 ff 60 4b bb 97 25 a6 be d7 dc 47 3e 6a 3a e1 3d
       -0.0031033156 -0.32450554 0.19517837 0.1099747
0001f0 86 7b 5c be 34 21 88 3d 8a e3 e3 bd 50 d6 6e bd
       -0.21531495 0.06646958 -0.11127384 -0.058309853
000200 e9 64 ac 3e 0b 64 84 3e a4 f4 80 3e 32 8d ed 3d
       0.33670738 0.25857577 0.25186646 0.115991965
000210 b5 13 48 3e fd b8 bc 3e 3a df e8 3e 5f 5d 1c 3e
       0.19538768 0.36859885 0.45482808 0.15269993
000220 5d 65 87 3d 24 0d ef 3d 8c 3d 94 be aa b1 fc 3e
       0.066111304 0.11672428 -0.28953207 0.49354297
000230 4c a4 91 3e a0 bd c3 be 66 5c 98 bd 98 d8 56 3e
       0.2844566 -0.3823061 -0.074394986 0.20981061
000240 be 1c 2e bd 47 dc 95 be fb c5 ea 3d cc 98 06 3e
       -0.04250788 -0.2926962 0.11463543 0.13144225
000250 ea 58 fd 3d 13 93 58 3e 15 0b 34 bd 2e fa b4 3d
       0.12370475 0.21149854 -0.04395588 0.088367805
000260 6a 2d 04 3f 32 96 e5 3b 9c 85 28 3c d0 3a e6 3b
       0.51631796 0.00700643 0.010285761 0.007026054
000270 aa c8 b6 3d 34 c1 de 3e 29 c9 15 be 8f fd 69 3c
       0.089249924 0.43506777 -0.14627518 0.0142816445
000280 a5 52 79 bd 1a 05 f9 bd 0e 4b a1 3e 8f 4f ce 3d
       -0.06086983 -0.12159176 0.31502575 0.10073768
000290 08 a7 a4 3e 3f ad 7b be 56 83 92 3e fa af 1b 3e
       0.32158685 -0.24577807 0.28615826 0.15203848
0002a0 9e 6d 30 be 22 5c 2b 3e fa 05 21 3e 77 0b 57 be
       -0.17229316 0.16734365 0.15724936 -0.21000467
0002b0 b0 8c 25 3e 91 c0 12 3c 38 50 35 3e b0 0e 1c 3f
       0.1616695 0.008957044 0.17706382 0.6095991
0002c0 62 59 b8 3d fb b7 c7 bd a9 20 15 3e 25 5e 59 3e
       0.090014234 -0.09751888 0.1456324 0.2122732
0002d0 e7 91 35 bc a7 0d bc 3d 51 06 29 3e 25 54 83 3d
       -0.011082149 0.091822915 0.16506316 0.06412534
0002e0 76 54 9d bd 71 5d f0 be c2 2b cf 3d 87 be d2 3d
       -0.07682125 -0.4694629 0.10115768 0.102902465
0002f0 23 49 b8 be 48 3e d2 3d d2 db e0 be 4d 9b 8f bd
       -0.359933 0.102657855 -0.4391771 -0.07012043
000300 1f b0 a5 3e b9 d0 bb 3e 6e f5 d8 3d 64 33 ea 3e
       0.32360932 0.3668268 0.10593687 0.45742333
000310 38 ba db 3d 72 90 2e be c8 7b a9 3e d3 9b 9b 3d
       0.10728878 -0.17047289 0.3310225 0.075980805
000320 e7 fd 00 3e ce 5e 40 3e 01 4f 5f bd 4a 7d 99 bc
       0.12596856 0.18786165 -0.054518703 -0.0187365
000330 8d f9 ca 3e 48 67 0d 3d 4b 26 be 3c d8 dd 61 bb
       0.39643517 0.034522325 0.023211619 -0.0034464505
000340 76 f1 79 3e 9d b5 5c 3e 15 ca 40 be 83 c8 02 3e
       0.24408516 0.21553655 -0.18827088 0.12771802
000350 ae 9e 51 3d 12 0d 7f 3e f3 aa 88 be 98 43 2e 3e
       0.05117672 0.2490733 -0.26692924 0.17017972
000360 2c b9 1d 3e 28 4e ea be ec 85 2d be c1 c4 79 be
       0.15402669 -0.45762753 -0.16945618 -0.24391462
000370 5e d7 32 3e b6 22 8d 3e 71 c6 c9 be 0b fd c2 3d
       0.17464969 0.27565545 -0.3940921 0.0952092
000380 a8 b8 a4 3e 7b ce d0 3d fe 45 b6 3e 98 0f e0 b8
       0.32172132 0.10195633 0.35600275 -0.00010684057
000390 97 76 ec bc e5 3c 11 bd d3 d6 bc 3e 10 75 84 3e
       -0.028865142 -0.035458464 0.36882648 0.25870562
0003a0 bb 87 63 be 53 58 3b 3e 81 49 fd 3d ca f5 a7 bd
       -0.22219746 0.18295412 0.123675354 -0.082011774
0003b0 92 67 e8 3e 10 ae 00 be 30 f4 ca 3d 22 03 d0 bd
       0.45391518 -0.125664 0.09909856 -0.101568475
0003c0 53 f2 98 bd c4 b8 97 3d 9a 5c 68 3e bd 71 32 3e
       -0.07468095 0.07408288 0.22691575 0.174262
0003d0 86 60 9a 3d 04 96 53 be 8b ec 1f 3e 53 38 61 3e
       0.07537942 -0.20662695 0.15617578 0.21994142
0003e0 c6 cf 38 be 99 e3 c6 3d 68 35 98 be 8a 6a a0 bd
       -0.1804801 0.097113796 -0.29728246 -0.07832821
0003f0 5f 79 91 be 83 5c 95 3d 76 e3 e3 be 9d 74 2a 3e
       -0.2841291 0.07293036 -0.44509476 0.16646047

fc3.bias f4 [4]
000000 23 32 97 3e 2a 7e 7e 3e 29 e7 22 3e f9 2a 3a 3e
       0.2953044 0.24852815 0.15908493 0.18180455
